{"config": {"layers": [{"config": {"sparse": false, "name": "input_1", "batch_input_shape": [null, 1, 80, 80, 32], "dtype": "float32"}, "class_name": "InputLayer", "name": "input_1", "inbound_nodes": []}, {"config": {"kernel_regularizer": null, "activity_regularizer": null, "trainable": true, "kernel_size": [3, 3, 3], "name": "conv3d_1", "kernel_initializer": {"class_name": "VarianceScaling", "config": {"mode": "fan_avg", "distribution": "uniform", "scale": 1.0, "seed": null}}, "filters": 16, "kernel_constraint": null, "bias_initializer": {"class_name": "Zeros", "config": {}}, "bias_constraint": null, "bias_regularizer": null, "use_bias": true, "dilation_rate": [1, 1, 1], "padding": "same", "strides": [1, 1, 1], "data_format": "channels_first", "activation": "linear"}, "class_name": "Conv3D", "name": "conv3d_1", "inbound_nodes": [[["input_1", 0, 0, {}]]]}, {"config": {"gamma_regularizer": null, "scale": true, "trainable": true, "beta_constraint": null, "center": true, "moving_variance_initializer": {"class_name": "Ones", "config": {}}, "beta_initializer": {"class_name": "Zeros", "config": {}}, "name": "batch_normalization_1", "beta_regularizer": null, "moving_mean_initializer": {"class_name": "Zeros", "config": {}}, "momentum": 0.99, "gamma_initializer": {"class_name": "Ones", "config": {}}, "axis": 1, "gamma_constraint": null, "epsilon": 0.001}, "class_name": "BatchNormalization", "name": "batch_normalization_1", "inbound_nodes": [[["conv3d_1", 0, 0, {}]]]}, {"config": {"name": "leaky_re_lu_1", "trainable": true, "alpha": 0.30000001192092896}, "class_name": "LeakyReLU", "name": "leaky_re_lu_1", "inbound_nodes": [[["batch_normalization_1", 0, 0, {}]]]}, {"config": {"kernel_regularizer": null, "activity_regularizer": null, "trainable": true, "kernel_size": [3, 3, 3], "name": "conv3d_2", "kernel_initializer": {"class_name": "VarianceScaling", "config": {"mode": "fan_avg", "distribution": "uniform", "scale": 1.0, "seed": null}}, "filters": 16, "kernel_constraint": null, "bias_initializer": {"class_name": "Zeros", "config": {}}, "bias_constraint": null, "bias_regularizer": null, "use_bias": true, "dilation_rate": [1, 1, 1], "padding": "same", "strides": [1, 1, 1], "data_format": "channels_first", "activation": "linear"}, "class_name": "Conv3D", "name": "conv3d_2", "inbound_nodes": [[["leaky_re_lu_1", 0, 0, {}]]]}, {"config": {"gamma_regularizer": null, "scale": true, "trainable": true, "beta_constraint": null, "center": true, "moving_variance_initializer": {"class_name": "Ones", "config": {}}, "beta_initializer": {"class_name": "Zeros", "config": {}}, "name": "batch_normalization_2", "beta_regularizer": null, "moving_mean_initializer": {"class_name": "Zeros", "config": {}}, "momentum": 0.99, "gamma_initializer": {"class_name": "Ones", "config": {}}, "axis": 1, "gamma_constraint": null, "epsilon": 0.001}, "class_name": "BatchNormalization", "name": "batch_normalization_2", "inbound_nodes": [[["conv3d_2", 0, 0, {}]]]}, {"config": {"name": "leaky_re_lu_2", "trainable": true, "alpha": 0.30000001192092896}, "class_name": "LeakyReLU", "name": "leaky_re_lu_2", "inbound_nodes": [[["batch_normalization_2", 0, 0, {}]]]}, {"config": {"noise_shape": null, "name": "spatial_dropout3d_1", "rate": 0.3, "trainable": true, "seed": null}, "class_name": "SpatialDropout3D", "name": "spatial_dropout3d_1", "inbound_nodes": [[["leaky_re_lu_2", 0, 0, {}]]]}, {"config": {"kernel_regularizer": null, "activity_regularizer": null, "trainable": true, "kernel_size": [3, 3, 3], "name": "conv3d_3", "kernel_initializer": {"class_name": "VarianceScaling", "config": {"mode": "fan_avg", "distribution": "uniform", "scale": 1.0, "seed": null}}, "filters": 16, "kernel_constraint": null, "bias_initializer": {"class_name": "Zeros", "config": {}}, "bias_constraint": null, "bias_regularizer": null, "use_bias": true, "dilation_rate": [1, 1, 1], "padding": "same", "strides": [1, 1, 1], "data_format": "channels_first", "activation": "linear"}, "class_name": "Conv3D", "name": "conv3d_3", "inbound_nodes": [[["spatial_dropout3d_1", 0, 0, {}]]]}, {"config": {"gamma_regularizer": null, "scale": true, "trainable": true, "beta_constraint": null, "center": true, "moving_variance_initializer": {"class_name": "Ones", "config": {}}, "beta_initializer": {"class_name": "Zeros", "config": {}}, "name": "batch_normalization_3", "beta_regularizer": null, "moving_mean_initializer": {"class_name": "Zeros", "config": {}}, "momentum": 0.99, "gamma_initializer": {"class_name": "Ones", "config": {}}, "axis": 1, "gamma_constraint": null, "epsilon": 0.001}, "class_name": "BatchNormalization", "name": "batch_normalization_3", "inbound_nodes": [[["conv3d_3", 0, 0, {}]]]}, {"config": {"name": "leaky_re_lu_3", "trainable": true, "alpha": 0.30000001192092896}, "class_name": "LeakyReLU", "name": "leaky_re_lu_3", "inbound_nodes": [[["batch_normalization_3", 0, 0, {}]]]}, {"config": {"name": "add_1", "trainable": true}, "class_name": "Add", "name": "add_1", "inbound_nodes": [[["leaky_re_lu_1", 0, 0, {}], ["leaky_re_lu_3", 0, 0, {}]]]}, {"config": {"kernel_regularizer": null, "activity_regularizer": null, "trainable": true, "kernel_size": [3, 3, 3], "name": "conv3d_4", "kernel_initializer": {"class_name": "VarianceScaling", "config": {"mode": "fan_avg", "distribution": "uniform", "scale": 1.0, "seed": null}}, "filters": 32, "kernel_constraint": null, "bias_initializer": {"class_name": "Zeros", "config": {}}, "bias_constraint": null, "bias_regularizer": null, "use_bias": true, "dilation_rate": [1, 1, 1], "padding": "same", "strides": [2, 2, 2], "data_format": "channels_first", "activation": "linear"}, "class_name": "Conv3D", "name": "conv3d_4", "inbound_nodes": [[["add_1", 0, 0, {}]]]}, {"config": {"gamma_regularizer": null, "scale": true, "trainable": true, "beta_constraint": null, "center": true, "moving_variance_initializer": {"class_name": "Ones", "config": {}}, "beta_initializer": {"class_name": "Zeros", "config": {}}, "name": "batch_normalization_4", "beta_regularizer": null, "moving_mean_initializer": {"class_name": "Zeros", "config": {}}, "momentum": 0.99, "gamma_initializer": {"class_name": "Ones", "config": {}}, "axis": 1, "gamma_constraint": null, "epsilon": 0.001}, "class_name": "BatchNormalization", "name": "batch_normalization_4", "inbound_nodes": [[["conv3d_4", 0, 0, {}]]]}, {"config": {"name": "leaky_re_lu_4", "trainable": true, "alpha": 0.30000001192092896}, "class_name": "LeakyReLU", "name": "leaky_re_lu_4", "inbound_nodes": [[["batch_normalization_4", 0, 0, {}]]]}, {"config": {"kernel_regularizer": null, "activity_regularizer": null, "trainable": true, "kernel_size": [3, 3, 3], "name": "conv3d_5", "kernel_initializer": {"class_name": "VarianceScaling", "config": {"mode": "fan_avg", "distribution": "uniform", "scale": 1.0, "seed": null}}, "filters": 32, "kernel_constraint": null, "bias_initializer": {"class_name": "Zeros", "config": {}}, "bias_constraint": null, "bias_regularizer": null, "use_bias": true, "dilation_rate": [1, 1, 1], "padding": "same", "strides": [1, 1, 1], "data_format": "channels_first", "activation": "linear"}, "class_name": "Conv3D", "name": "conv3d_5", "inbound_nodes": [[["leaky_re_lu_4", 0, 0, {}]]]}, {"config": {"gamma_regularizer": null, "scale": true, "trainable": true, "beta_constraint": null, "center": true, "moving_variance_initializer": {"class_name": "Ones", "config": {}}, "beta_initializer": {"class_name": "Zeros", "config": {}}, "name": "batch_normalization_5", "beta_regularizer": null, "moving_mean_initializer": {"class_name": "Zeros", "config": {}}, "momentum": 0.99, "gamma_initializer": {"class_name": "Ones", "config": {}}, "axis": 1, "gamma_constraint": null, "epsilon": 0.001}, "class_name": "BatchNormalization", "name": "batch_normalization_5", "inbound_nodes": [[["conv3d_5", 0, 0, {}]]]}, {"config": {"name": "leaky_re_lu_5", "trainable": true, "alpha": 0.30000001192092896}, "class_name": "LeakyReLU", "name": "leaky_re_lu_5", "inbound_nodes": [[["batch_normalization_5", 0, 0, {}]]]}, {"config": {"noise_shape": null, "name": "spatial_dropout3d_2", "rate": 0.3, "trainable": true, "seed": null}, "class_name": "SpatialDropout3D", "name": "spatial_dropout3d_2", "inbound_nodes": [[["leaky_re_lu_5", 0, 0, {}]]]}, {"config": {"kernel_regularizer": null, "activity_regularizer": null, "trainable": true, "kernel_size": [3, 3, 3], "name": "conv3d_6", "kernel_initializer": {"class_name": "VarianceScaling", "config": {"mode": "fan_avg", "distribution": "uniform", "scale": 1.0, "seed": null}}, "filters": 32, "kernel_constraint": null, "bias_initializer": {"class_name": "Zeros", "config": {}}, "bias_constraint": null, "bias_regularizer": null, "use_bias": true, "dilation_rate": [1, 1, 1], "padding": "same", "strides": [1, 1, 1], "data_format": "channels_first", "activation": "linear"}, "class_name": "Conv3D", "name": "conv3d_6", "inbound_nodes": [[["spatial_dropout3d_2", 0, 0, {}]]]}, {"config": {"gamma_regularizer": null, "scale": true, "trainable": true, "beta_constraint": null, "center": true, "moving_variance_initializer": {"class_name": "Ones", "config": {}}, "beta_initializer": {"class_name": "Zeros", "config": {}}, "name": "batch_normalization_6", "beta_regularizer": null, "moving_mean_initializer": {"class_name": "Zeros", "config": {}}, "momentum": 0.99, "gamma_initializer": {"class_name": "Ones", "config": {}}, "axis": 1, "gamma_constraint": null, "epsilon": 0.001}, "class_name": "BatchNormalization", "name": "batch_normalization_6", "inbound_nodes": [[["conv3d_6", 0, 0, {}]]]}, {"config": {"name": "leaky_re_lu_6", "trainable": true, "alpha": 0.30000001192092896}, "class_name": "LeakyReLU", "name": "leaky_re_lu_6", "inbound_nodes": [[["batch_normalization_6", 0, 0, {}]]]}, {"config": {"name": "add_2", "trainable": true}, "class_name": "Add", "name": "add_2", "inbound_nodes": [[["leaky_re_lu_4", 0, 0, {}], ["leaky_re_lu_6", 0, 0, {}]]]}, {"config": {"kernel_regularizer": null, "activity_regularizer": null, "trainable": true, "kernel_size": [3, 3, 3], "name": "conv3d_7", "kernel_initializer": {"class_name": "VarianceScaling", "config": {"mode": "fan_avg", "distribution": "uniform", "scale": 1.0, "seed": null}}, "filters": 64, "kernel_constraint": null, "bias_initializer": {"class_name": "Zeros", "config": {}}, "bias_constraint": null, "bias_regularizer": null, "use_bias": true, "dilation_rate": [1, 1, 1], "padding": "same", "strides": [2, 2, 2], "data_format": "channels_first", "activation": "linear"}, "class_name": "Conv3D", "name": "conv3d_7", "inbound_nodes": [[["add_2", 0, 0, {}]]]}, {"config": {"gamma_regularizer": null, "scale": true, "trainable": true, "beta_constraint": null, "center": true, "moving_variance_initializer": {"class_name": "Ones", "config": {}}, "beta_initializer": {"class_name": "Zeros", "config": {}}, "name": "batch_normalization_7", "beta_regularizer": null, "moving_mean_initializer": {"class_name": "Zeros", "config": {}}, "momentum": 0.99, "gamma_initializer": {"class_name": "Ones", "config": {}}, "axis": 1, "gamma_constraint": null, "epsilon": 0.001}, "class_name": "BatchNormalization", "name": "batch_normalization_7", "inbound_nodes": [[["conv3d_7", 0, 0, {}]]]}, {"config": {"name": "leaky_re_lu_7", "trainable": true, "alpha": 0.30000001192092896}, "class_name": "LeakyReLU", "name": "leaky_re_lu_7", "inbound_nodes": [[["batch_normalization_7", 0, 0, {}]]]}, {"config": {"kernel_regularizer": null, "activity_regularizer": null, "trainable": true, "kernel_size": [3, 3, 3], "name": "conv3d_8", "kernel_initializer": {"class_name": "VarianceScaling", "config": {"mode": "fan_avg", "distribution": "uniform", "scale": 1.0, "seed": null}}, "filters": 64, "kernel_constraint": null, "bias_initializer": {"class_name": "Zeros", "config": {}}, "bias_constraint": null, "bias_regularizer": null, "use_bias": true, "dilation_rate": [1, 1, 1], "padding": "same", "strides": [1, 1, 1], "data_format": "channels_first", "activation": "linear"}, "class_name": "Conv3D", "name": "conv3d_8", "inbound_nodes": [[["leaky_re_lu_7", 0, 0, {}]]]}, {"config": {"gamma_regularizer": null, "scale": true, "trainable": true, "beta_constraint": null, "center": true, "moving_variance_initializer": {"class_name": "Ones", "config": {}}, "beta_initializer": {"class_name": "Zeros", "config": {}}, "name": "batch_normalization_8", "beta_regularizer": null, "moving_mean_initializer": {"class_name": "Zeros", "config": {}}, "momentum": 0.99, "gamma_initializer": {"class_name": "Ones", "config": {}}, "axis": 1, "gamma_constraint": null, "epsilon": 0.001}, "class_name": "BatchNormalization", "name": "batch_normalization_8", "inbound_nodes": [[["conv3d_8", 0, 0, {}]]]}, {"config": {"name": "leaky_re_lu_8", "trainable": true, "alpha": 0.30000001192092896}, "class_name": "LeakyReLU", "name": "leaky_re_lu_8", "inbound_nodes": [[["batch_normalization_8", 0, 0, {}]]]}, {"config": {"noise_shape": null, "name": "spatial_dropout3d_3", "rate": 0.3, "trainable": true, "seed": null}, "class_name": "SpatialDropout3D", "name": "spatial_dropout3d_3", "inbound_nodes": [[["leaky_re_lu_8", 0, 0, {}]]]}, {"config": {"kernel_regularizer": null, "activity_regularizer": null, "trainable": true, "kernel_size": [3, 3, 3], "name": "conv3d_9", "kernel_initializer": {"class_name": "VarianceScaling", "config": {"mode": "fan_avg", "distribution": "uniform", "scale": 1.0, "seed": null}}, "filters": 64, "kernel_constraint": null, "bias_initializer": {"class_name": "Zeros", "config": {}}, "bias_constraint": null, "bias_regularizer": null, "use_bias": true, "dilation_rate": [1, 1, 1], "padding": "same", "strides": [1, 1, 1], "data_format": "channels_first", "activation": "linear"}, "class_name": "Conv3D", "name": "conv3d_9", "inbound_nodes": [[["spatial_dropout3d_3", 0, 0, {}]]]}, {"config": {"gamma_regularizer": null, "scale": true, "trainable": true, "beta_constraint": null, "center": true, "moving_variance_initializer": {"class_name": "Ones", "config": {}}, "beta_initializer": {"class_name": "Zeros", "config": {}}, "name": "batch_normalization_9", "beta_regularizer": null, "moving_mean_initializer": {"class_name": "Zeros", "config": {}}, "momentum": 0.99, "gamma_initializer": {"class_name": "Ones", "config": {}}, "axis": 1, "gamma_constraint": null, "epsilon": 0.001}, "class_name": "BatchNormalization", "name": "batch_normalization_9", "inbound_nodes": [[["conv3d_9", 0, 0, {}]]]}, {"config": {"name": "leaky_re_lu_9", "trainable": true, "alpha": 0.30000001192092896}, "class_name": "LeakyReLU", "name": "leaky_re_lu_9", "inbound_nodes": [[["batch_normalization_9", 0, 0, {}]]]}, {"config": {"name": "add_3", "trainable": true}, "class_name": "Add", "name": "add_3", "inbound_nodes": [[["leaky_re_lu_7", 0, 0, {}], ["leaky_re_lu_9", 0, 0, {}]]]}, {"config": {"kernel_regularizer": null, "activity_regularizer": null, "trainable": true, "kernel_size": [3, 3, 3], "name": "conv3d_10", "kernel_initializer": {"class_name": "VarianceScaling", "config": {"mode": "fan_avg", "distribution": "uniform", "scale": 1.0, "seed": null}}, "filters": 128, "kernel_constraint": null, "bias_initializer": {"class_name": "Zeros", "config": {}}, "bias_constraint": null, "bias_regularizer": null, "use_bias": true, "dilation_rate": [1, 1, 1], "padding": "same", "strides": [2, 2, 2], "data_format": "channels_first", "activation": "linear"}, "class_name": "Conv3D", "name": "conv3d_10", "inbound_nodes": [[["add_3", 0, 0, {}]]]}, {"config": {"gamma_regularizer": null, "scale": true, "trainable": true, "beta_constraint": null, "center": true, "moving_variance_initializer": {"class_name": "Ones", "config": {}}, "beta_initializer": {"class_name": "Zeros", "config": {}}, "name": "batch_normalization_10", "beta_regularizer": null, "moving_mean_initializer": {"class_name": "Zeros", "config": {}}, "momentum": 0.99, "gamma_initializer": {"class_name": "Ones", "config": {}}, "axis": 1, "gamma_constraint": null, "epsilon": 0.001}, "class_name": "BatchNormalization", "name": "batch_normalization_10", "inbound_nodes": [[["conv3d_10", 0, 0, {}]]]}, {"config": {"name": "leaky_re_lu_10", "trainable": true, "alpha": 0.30000001192092896}, "class_name": "LeakyReLU", "name": "leaky_re_lu_10", "inbound_nodes": [[["batch_normalization_10", 0, 0, {}]]]}, {"config": {"kernel_regularizer": null, "activity_regularizer": null, "trainable": true, "kernel_size": [3, 3, 3], "name": "conv3d_11", "kernel_initializer": {"class_name": "VarianceScaling", "config": {"mode": "fan_avg", "distribution": "uniform", "scale": 1.0, "seed": null}}, "filters": 128, "kernel_constraint": null, "bias_initializer": {"class_name": "Zeros", "config": {}}, "bias_constraint": null, "bias_regularizer": null, "use_bias": true, "dilation_rate": [1, 1, 1], "padding": "same", "strides": [1, 1, 1], "data_format": "channels_first", "activation": "linear"}, "class_name": "Conv3D", "name": "conv3d_11", "inbound_nodes": [[["leaky_re_lu_10", 0, 0, {}]]]}, {"config": {"gamma_regularizer": null, "scale": true, "trainable": true, "beta_constraint": null, "center": true, "moving_variance_initializer": {"class_name": "Ones", "config": {}}, "beta_initializer": {"class_name": "Zeros", "config": {}}, "name": "batch_normalization_11", "beta_regularizer": null, "moving_mean_initializer": {"class_name": "Zeros", "config": {}}, "momentum": 0.99, "gamma_initializer": {"class_name": "Ones", "config": {}}, "axis": 1, "gamma_constraint": null, "epsilon": 0.001}, "class_name": "BatchNormalization", "name": "batch_normalization_11", "inbound_nodes": [[["conv3d_11", 0, 0, {}]]]}, {"config": {"name": "leaky_re_lu_11", "trainable": true, "alpha": 0.30000001192092896}, "class_name": "LeakyReLU", "name": "leaky_re_lu_11", "inbound_nodes": [[["batch_normalization_11", 0, 0, {}]]]}, {"config": {"noise_shape": null, "name": "spatial_dropout3d_4", "rate": 0.3, "trainable": true, "seed": null}, "class_name": "SpatialDropout3D", "name": "spatial_dropout3d_4", "inbound_nodes": [[["leaky_re_lu_11", 0, 0, {}]]]}, {"config": {"kernel_regularizer": null, "activity_regularizer": null, "trainable": true, "kernel_size": [3, 3, 3], "name": "conv3d_12", "kernel_initializer": {"class_name": "VarianceScaling", "config": {"mode": "fan_avg", "distribution": "uniform", "scale": 1.0, "seed": null}}, "filters": 128, "kernel_constraint": null, "bias_initializer": {"class_name": "Zeros", "config": {}}, "bias_constraint": null, "bias_regularizer": null, "use_bias": true, "dilation_rate": [1, 1, 1], "padding": "same", "strides": [1, 1, 1], "data_format": "channels_first", "activation": "linear"}, "class_name": "Conv3D", "name": "conv3d_12", "inbound_nodes": [[["spatial_dropout3d_4", 0, 0, {}]]]}, {"config": {"gamma_regularizer": null, "scale": true, "trainable": true, "beta_constraint": null, "center": true, "moving_variance_initializer": {"class_name": "Ones", "config": {}}, "beta_initializer": {"class_name": "Zeros", "config": {}}, "name": "batch_normalization_12", "beta_regularizer": null, "moving_mean_initializer": {"class_name": "Zeros", "config": {}}, "momentum": 0.99, "gamma_initializer": {"class_name": "Ones", "config": {}}, "axis": 1, "gamma_constraint": null, "epsilon": 0.001}, "class_name": "BatchNormalization", "name": "batch_normalization_12", "inbound_nodes": [[["conv3d_12", 0, 0, {}]]]}, {"config": {"name": "leaky_re_lu_12", "trainable": true, "alpha": 0.30000001192092896}, "class_name": "LeakyReLU", "name": "leaky_re_lu_12", "inbound_nodes": [[["batch_normalization_12", 0, 0, {}]]]}, {"config": {"name": "add_4", "trainable": true}, "class_name": "Add", "name": "add_4", "inbound_nodes": [[["leaky_re_lu_10", 0, 0, {}], ["leaky_re_lu_12", 0, 0, {}]]]}, {"config": {"kernel_regularizer": null, "activity_regularizer": null, "trainable": true, "kernel_size": [3, 3, 3], "name": "conv3d_13", "kernel_initializer": {"class_name": "VarianceScaling", "config": {"mode": "fan_avg", "distribution": "uniform", "scale": 1.0, "seed": null}}, "filters": 256, "kernel_constraint": null, "bias_initializer": {"class_name": "Zeros", "config": {}}, "bias_constraint": null, "bias_regularizer": null, "use_bias": true, "dilation_rate": [1, 1, 1], "padding": "same", "strides": [2, 2, 2], "data_format": "channels_first", "activation": "linear"}, "class_name": "Conv3D", "name": "conv3d_13", "inbound_nodes": [[["add_4", 0, 0, {}]]]}, {"config": {"gamma_regularizer": null, "scale": true, "trainable": true, "beta_constraint": null, "center": true, "moving_variance_initializer": {"class_name": "Ones", "config": {}}, "beta_initializer": {"class_name": "Zeros", "config": {}}, "name": "batch_normalization_13", "beta_regularizer": null, "moving_mean_initializer": {"class_name": "Zeros", "config": {}}, "momentum": 0.99, "gamma_initializer": {"class_name": "Ones", "config": {}}, "axis": 1, "gamma_constraint": null, "epsilon": 0.001}, "class_name": "BatchNormalization", "name": "batch_normalization_13", "inbound_nodes": [[["conv3d_13", 0, 0, {}]]]}, {"config": {"name": "leaky_re_lu_13", "trainable": true, "alpha": 0.30000001192092896}, "class_name": "LeakyReLU", "name": "leaky_re_lu_13", "inbound_nodes": [[["batch_normalization_13", 0, 0, {}]]]}, {"config": {"kernel_regularizer": null, "activity_regularizer": null, "trainable": true, "kernel_size": [3, 3, 3], "name": "conv3d_14", "kernel_initializer": {"class_name": "VarianceScaling", "config": {"mode": "fan_avg", "distribution": "uniform", "scale": 1.0, "seed": null}}, "filters": 256, "kernel_constraint": null, "bias_initializer": {"class_name": "Zeros", "config": {}}, "bias_constraint": null, "bias_regularizer": null, "use_bias": true, "dilation_rate": [1, 1, 1], "padding": "same", "strides": [1, 1, 1], "data_format": "channels_first", "activation": "linear"}, "class_name": "Conv3D", "name": "conv3d_14", "inbound_nodes": [[["leaky_re_lu_13", 0, 0, {}]]]}, {"config": {"gamma_regularizer": null, "scale": true, "trainable": true, "beta_constraint": null, "center": true, "moving_variance_initializer": {"class_name": "Ones", "config": {}}, "beta_initializer": {"class_name": "Zeros", "config": {}}, "name": "batch_normalization_14", "beta_regularizer": null, "moving_mean_initializer": {"class_name": "Zeros", "config": {}}, "momentum": 0.99, "gamma_initializer": {"class_name": "Ones", "config": {}}, "axis": 1, "gamma_constraint": null, "epsilon": 0.001}, "class_name": "BatchNormalization", "name": "batch_normalization_14", "inbound_nodes": [[["conv3d_14", 0, 0, {}]]]}, {"config": {"name": "leaky_re_lu_14", "trainable": true, "alpha": 0.30000001192092896}, "class_name": "LeakyReLU", "name": "leaky_re_lu_14", "inbound_nodes": [[["batch_normalization_14", 0, 0, {}]]]}, {"config": {"noise_shape": null, "name": "spatial_dropout3d_5", "rate": 0.3, "trainable": true, "seed": null}, "class_name": "SpatialDropout3D", "name": "spatial_dropout3d_5", "inbound_nodes": [[["leaky_re_lu_14", 0, 0, {}]]]}, {"config": {"kernel_regularizer": null, "activity_regularizer": null, "trainable": true, "kernel_size": [3, 3, 3], "name": "conv3d_15", "kernel_initializer": {"class_name": "VarianceScaling", "config": {"mode": "fan_avg", "distribution": "uniform", "scale": 1.0, "seed": null}}, "filters": 256, "kernel_constraint": null, "bias_initializer": {"class_name": "Zeros", "config": {}}, "bias_constraint": null, "bias_regularizer": null, "use_bias": true, "dilation_rate": [1, 1, 1], "padding": "same", "strides": [1, 1, 1], "data_format": "channels_first", "activation": "linear"}, "class_name": "Conv3D", "name": "conv3d_15", "inbound_nodes": [[["spatial_dropout3d_5", 0, 0, {}]]]}, {"config": {"gamma_regularizer": null, "scale": true, "trainable": true, "beta_constraint": null, "center": true, "moving_variance_initializer": {"class_name": "Ones", "config": {}}, "beta_initializer": {"class_name": "Zeros", "config": {}}, "name": "batch_normalization_15", "beta_regularizer": null, "moving_mean_initializer": {"class_name": "Zeros", "config": {}}, "momentum": 0.99, "gamma_initializer": {"class_name": "Ones", "config": {}}, "axis": 1, "gamma_constraint": null, "epsilon": 0.001}, "class_name": "BatchNormalization", "name": "batch_normalization_15", "inbound_nodes": [[["conv3d_15", 0, 0, {}]]]}, {"config": {"name": "leaky_re_lu_15", "trainable": true, "alpha": 0.30000001192092896}, "class_name": "LeakyReLU", "name": "leaky_re_lu_15", "inbound_nodes": [[["batch_normalization_15", 0, 0, {}]]]}, {"config": {"name": "add_5", "trainable": true}, "class_name": "Add", "name": "add_5", "inbound_nodes": [[["leaky_re_lu_13", 0, 0, {}], ["leaky_re_lu_15", 0, 0, {}]]]}, {"config": {"name": "up_sampling3d_1", "trainable": true, "data_format": "channels_first", "size": [2, 2, 2]}, "class_name": "UpSampling3D", "name": "up_sampling3d_1", "inbound_nodes": [[["add_5", 0, 0, {}]]]}, {"config": {"kernel_regularizer": null, "activity_regularizer": null, "trainable": true, "kernel_size": [3, 3, 3], "name": "conv3d_16", "kernel_initializer": {"class_name": "VarianceScaling", "config": {"mode": "fan_avg", "distribution": "uniform", "scale": 1.0, "seed": null}}, "filters": 128, "kernel_constraint": null, "bias_initializer": {"class_name": "Zeros", "config": {}}, "bias_constraint": null, "bias_regularizer": null, "use_bias": true, "dilation_rate": [1, 1, 1], "padding": "same", "strides": [1, 1, 1], "data_format": "channels_first", "activation": "linear"}, "class_name": "Conv3D", "name": "conv3d_16", "inbound_nodes": [[["up_sampling3d_1", 0, 0, {}]]]}, {"config": {"gamma_regularizer": null, "scale": true, "trainable": true, "beta_constraint": null, "center": true, "moving_variance_initializer": {"class_name": "Ones", "config": {}}, "beta_initializer": {"class_name": "Zeros", "config": {}}, "name": "batch_normalization_16", "beta_regularizer": null, "moving_mean_initializer": {"class_name": "Zeros", "config": {}}, "momentum": 0.99, "gamma_initializer": {"class_name": "Ones", "config": {}}, "axis": 1, "gamma_constraint": null, "epsilon": 0.001}, "class_name": "BatchNormalization", "name": "batch_normalization_16", "inbound_nodes": [[["conv3d_16", 0, 0, {}]]]}, {"config": {"name": "leaky_re_lu_16", "trainable": true, "alpha": 0.30000001192092896}, "class_name": "LeakyReLU", "name": "leaky_re_lu_16", "inbound_nodes": [[["batch_normalization_16", 0, 0, {}]]]}, {"config": {"name": "concatenate_1", "axis": 1, "trainable": true}, "class_name": "Concatenate", "name": "concatenate_1", "inbound_nodes": [[["add_4", 0, 0, {}], ["leaky_re_lu_16", 0, 0, {}]]]}, {"config": {"kernel_regularizer": null, "activity_regularizer": null, "trainable": true, "kernel_size": [3, 3, 3], "name": "conv3d_17", "kernel_initializer": {"class_name": "VarianceScaling", "config": {"mode": "fan_avg", "distribution": "uniform", "scale": 1.0, "seed": null}}, "filters": 128, "kernel_constraint": null, "bias_initializer": {"class_name": "Zeros", "config": {}}, "bias_constraint": null, "bias_regularizer": null, "use_bias": true, "dilation_rate": [1, 1, 1], "padding": "same", "strides": [1, 1, 1], "data_format": "channels_first", "activation": "linear"}, "class_name": "Conv3D", "name": "conv3d_17", "inbound_nodes": [[["concatenate_1", 0, 0, {}]]]}, {"config": {"gamma_regularizer": null, "scale": true, "trainable": true, "beta_constraint": null, "center": true, "moving_variance_initializer": {"class_name": "Ones", "config": {}}, "beta_initializer": {"class_name": "Zeros", "config": {}}, "name": "batch_normalization_17", "beta_regularizer": null, "moving_mean_initializer": {"class_name": "Zeros", "config": {}}, "momentum": 0.99, "gamma_initializer": {"class_name": "Ones", "config": {}}, "axis": 1, "gamma_constraint": null, "epsilon": 0.001}, "class_name": "BatchNormalization", "name": "batch_normalization_17", "inbound_nodes": [[["conv3d_17", 0, 0, {}]]]}, {"config": {"name": "leaky_re_lu_17", "trainable": true, "alpha": 0.30000001192092896}, "class_name": "LeakyReLU", "name": "leaky_re_lu_17", "inbound_nodes": [[["batch_normalization_17", 0, 0, {}]]]}, {"config": {"kernel_regularizer": null, "activity_regularizer": null, "trainable": true, "kernel_size": [1, 1, 1], "name": "conv3d_18", "kernel_initializer": {"class_name": "VarianceScaling", "config": {"mode": "fan_avg", "distribution": "uniform", "scale": 1.0, "seed": null}}, "filters": 128, "kernel_constraint": null, "bias_initializer": {"class_name": "Zeros", "config": {}}, "bias_constraint": null, "bias_regularizer": null, "use_bias": true, "dilation_rate": [1, 1, 1], "padding": "same", "strides": [1, 1, 1], "data_format": "channels_first", "activation": "linear"}, "class_name": "Conv3D", "name": "conv3d_18", "inbound_nodes": [[["leaky_re_lu_17", 0, 0, {}]]]}, {"config": {"gamma_regularizer": null, "scale": true, "trainable": true, "beta_constraint": null, "center": true, "moving_variance_initializer": {"class_name": "Ones", "config": {}}, "beta_initializer": {"class_name": "Zeros", "config": {}}, "name": "batch_normalization_18", "beta_regularizer": null, "moving_mean_initializer": {"class_name": "Zeros", "config": {}}, "momentum": 0.99, "gamma_initializer": {"class_name": "Ones", "config": {}}, "axis": 1, "gamma_constraint": null, "epsilon": 0.001}, "class_name": "BatchNormalization", "name": "batch_normalization_18", "inbound_nodes": [[["conv3d_18", 0, 0, {}]]]}, {"config": {"name": "leaky_re_lu_18", "trainable": true, "alpha": 0.30000001192092896}, "class_name": "LeakyReLU", "name": "leaky_re_lu_18", "inbound_nodes": [[["batch_normalization_18", 0, 0, {}]]]}, {"config": {"name": "up_sampling3d_2", "trainable": true, "data_format": "channels_first", "size": [2, 2, 2]}, "class_name": "UpSampling3D", "name": "up_sampling3d_2", "inbound_nodes": [[["leaky_re_lu_18", 0, 0, {}]]]}, {"config": {"kernel_regularizer": null, "activity_regularizer": null, "trainable": true, "kernel_size": [3, 3, 3], "name": "conv3d_19", "kernel_initializer": {"class_name": "VarianceScaling", "config": {"mode": "fan_avg", "distribution": "uniform", "scale": 1.0, "seed": null}}, "filters": 64, "kernel_constraint": null, "bias_initializer": {"class_name": "Zeros", "config": {}}, "bias_constraint": null, "bias_regularizer": null, "use_bias": true, "dilation_rate": [1, 1, 1], "padding": "same", "strides": [1, 1, 1], "data_format": "channels_first", "activation": "linear"}, "class_name": "Conv3D", "name": "conv3d_19", "inbound_nodes": [[["up_sampling3d_2", 0, 0, {}]]]}, {"config": {"gamma_regularizer": null, "scale": true, "trainable": true, "beta_constraint": null, "center": true, "moving_variance_initializer": {"class_name": "Ones", "config": {}}, "beta_initializer": {"class_name": "Zeros", "config": {}}, "name": "batch_normalization_19", "beta_regularizer": null, "moving_mean_initializer": {"class_name": "Zeros", "config": {}}, "momentum": 0.99, "gamma_initializer": {"class_name": "Ones", "config": {}}, "axis": 1, "gamma_constraint": null, "epsilon": 0.001}, "class_name": "BatchNormalization", "name": "batch_normalization_19", "inbound_nodes": [[["conv3d_19", 0, 0, {}]]]}, {"config": {"name": "leaky_re_lu_19", "trainable": true, "alpha": 0.30000001192092896}, "class_name": "LeakyReLU", "name": "leaky_re_lu_19", "inbound_nodes": [[["batch_normalization_19", 0, 0, {}]]]}, {"config": {"name": "concatenate_2", "axis": 1, "trainable": true}, "class_name": "Concatenate", "name": "concatenate_2", "inbound_nodes": [[["add_3", 0, 0, {}], ["leaky_re_lu_19", 0, 0, {}]]]}, {"config": {"kernel_regularizer": null, "activity_regularizer": null, "trainable": true, "kernel_size": [3, 3, 3], "name": "conv3d_20", "kernel_initializer": {"class_name": "VarianceScaling", "config": {"mode": "fan_avg", "distribution": "uniform", "scale": 1.0, "seed": null}}, "filters": 64, "kernel_constraint": null, "bias_initializer": {"class_name": "Zeros", "config": {}}, "bias_constraint": null, "bias_regularizer": null, "use_bias": true, "dilation_rate": [1, 1, 1], "padding": "same", "strides": [1, 1, 1], "data_format": "channels_first", "activation": "linear"}, "class_name": "Conv3D", "name": "conv3d_20", "inbound_nodes": [[["concatenate_2", 0, 0, {}]]]}, {"config": {"gamma_regularizer": null, "scale": true, "trainable": true, "beta_constraint": null, "center": true, "moving_variance_initializer": {"class_name": "Ones", "config": {}}, "beta_initializer": {"class_name": "Zeros", "config": {}}, "name": "batch_normalization_20", "beta_regularizer": null, "moving_mean_initializer": {"class_name": "Zeros", "config": {}}, "momentum": 0.99, "gamma_initializer": {"class_name": "Ones", "config": {}}, "axis": 1, "gamma_constraint": null, "epsilon": 0.001}, "class_name": "BatchNormalization", "name": "batch_normalization_20", "inbound_nodes": [[["conv3d_20", 0, 0, {}]]]}, {"config": {"name": "leaky_re_lu_20", "trainable": true, "alpha": 0.30000001192092896}, "class_name": "LeakyReLU", "name": "leaky_re_lu_20", "inbound_nodes": [[["batch_normalization_20", 0, 0, {}]]]}, {"config": {"kernel_regularizer": null, "activity_regularizer": null, "trainable": true, "kernel_size": [1, 1, 1], "name": "conv3d_21", "kernel_initializer": {"class_name": "VarianceScaling", "config": {"mode": "fan_avg", "distribution": "uniform", "scale": 1.0, "seed": null}}, "filters": 64, "kernel_constraint": null, "bias_initializer": {"class_name": "Zeros", "config": {}}, "bias_constraint": null, "bias_regularizer": null, "use_bias": true, "dilation_rate": [1, 1, 1], "padding": "same", "strides": [1, 1, 1], "data_format": "channels_first", "activation": "linear"}, "class_name": "Conv3D", "name": "conv3d_21", "inbound_nodes": [[["leaky_re_lu_20", 0, 0, {}]]]}, {"config": {"gamma_regularizer": null, "scale": true, "trainable": true, "beta_constraint": null, "center": true, "moving_variance_initializer": {"class_name": "Ones", "config": {}}, "beta_initializer": {"class_name": "Zeros", "config": {}}, "name": "batch_normalization_21", "beta_regularizer": null, "moving_mean_initializer": {"class_name": "Zeros", "config": {}}, "momentum": 0.99, "gamma_initializer": {"class_name": "Ones", "config": {}}, "axis": 1, "gamma_constraint": null, "epsilon": 0.001}, "class_name": "BatchNormalization", "name": "batch_normalization_21", "inbound_nodes": [[["conv3d_21", 0, 0, {}]]]}, {"config": {"name": "leaky_re_lu_21", "trainable": true, "alpha": 0.30000001192092896}, "class_name": "LeakyReLU", "name": "leaky_re_lu_21", "inbound_nodes": [[["batch_normalization_21", 0, 0, {}]]]}, {"config": {"name": "up_sampling3d_3", "trainable": true, "data_format": "channels_first", "size": [2, 2, 2]}, "class_name": "UpSampling3D", "name": "up_sampling3d_3", "inbound_nodes": [[["leaky_re_lu_21", 0, 0, {}]]]}, {"config": {"kernel_regularizer": null, "activity_regularizer": null, "trainable": true, "kernel_size": [3, 3, 3], "name": "conv3d_23", "kernel_initializer": {"class_name": "VarianceScaling", "config": {"mode": "fan_avg", "distribution": "uniform", "scale": 1.0, "seed": null}}, "filters": 32, "kernel_constraint": null, "bias_initializer": {"class_name": "Zeros", "config": {}}, "bias_constraint": null, "bias_regularizer": null, "use_bias": true, "dilation_rate": [1, 1, 1], "padding": "same", "strides": [1, 1, 1], "data_format": "channels_first", "activation": "linear"}, "class_name": "Conv3D", "name": "conv3d_23", "inbound_nodes": [[["up_sampling3d_3", 0, 0, {}]]]}, {"config": {"gamma_regularizer": null, "scale": true, "trainable": true, "beta_constraint": null, "center": true, "moving_variance_initializer": {"class_name": "Ones", "config": {}}, "beta_initializer": {"class_name": "Zeros", "config": {}}, "name": "batch_normalization_22", "beta_regularizer": null, "moving_mean_initializer": {"class_name": "Zeros", "config": {}}, "momentum": 0.99, "gamma_initializer": {"class_name": "Ones", "config": {}}, "axis": 1, "gamma_constraint": null, "epsilon": 0.001}, "class_name": "BatchNormalization", "name": "batch_normalization_22", "inbound_nodes": [[["conv3d_23", 0, 0, {}]]]}, {"config": {"name": "leaky_re_lu_22", "trainable": true, "alpha": 0.30000001192092896}, "class_name": "LeakyReLU", "name": "leaky_re_lu_22", "inbound_nodes": [[["batch_normalization_22", 0, 0, {}]]]}, {"config": {"name": "concatenate_3", "axis": 1, "trainable": true}, "class_name": "Concatenate", "name": "concatenate_3", "inbound_nodes": [[["add_2", 0, 0, {}], ["leaky_re_lu_22", 0, 0, {}]]]}, {"config": {"kernel_regularizer": null, "activity_regularizer": null, "trainable": true, "kernel_size": [3, 3, 3], "name": "conv3d_24", "kernel_initializer": {"class_name": "VarianceScaling", "config": {"mode": "fan_avg", "distribution": "uniform", "scale": 1.0, "seed": null}}, "filters": 32, "kernel_constraint": null, "bias_initializer": {"class_name": "Zeros", "config": {}}, "bias_constraint": null, "bias_regularizer": null, "use_bias": true, "dilation_rate": [1, 1, 1], "padding": "same", "strides": [1, 1, 1], "data_format": "channels_first", "activation": "linear"}, "class_name": "Conv3D", "name": "conv3d_24", "inbound_nodes": [[["concatenate_3", 0, 0, {}]]]}, {"config": {"gamma_regularizer": null, "scale": true, "trainable": true, "beta_constraint": null, "center": true, "moving_variance_initializer": {"class_name": "Ones", "config": {}}, "beta_initializer": {"class_name": "Zeros", "config": {}}, "name": "batch_normalization_23", "beta_regularizer": null, "moving_mean_initializer": {"class_name": "Zeros", "config": {}}, "momentum": 0.99, "gamma_initializer": {"class_name": "Ones", "config": {}}, "axis": 1, "gamma_constraint": null, "epsilon": 0.001}, "class_name": "BatchNormalization", "name": "batch_normalization_23", "inbound_nodes": [[["conv3d_24", 0, 0, {}]]]}, {"config": {"name": "leaky_re_lu_23", "trainable": true, "alpha": 0.30000001192092896}, "class_name": "LeakyReLU", "name": "leaky_re_lu_23", "inbound_nodes": [[["batch_normalization_23", 0, 0, {}]]]}, {"config": {"kernel_regularizer": null, "activity_regularizer": null, "trainable": true, "kernel_size": [1, 1, 1], "name": "conv3d_25", "kernel_initializer": {"class_name": "VarianceScaling", "config": {"mode": "fan_avg", "distribution": "uniform", "scale": 1.0, "seed": null}}, "filters": 32, "kernel_constraint": null, "bias_initializer": {"class_name": "Zeros", "config": {}}, "bias_constraint": null, "bias_regularizer": null, "use_bias": true, "dilation_rate": [1, 1, 1], "padding": "same", "strides": [1, 1, 1], "data_format": "channels_first", "activation": "linear"}, "class_name": "Conv3D", "name": "conv3d_25", "inbound_nodes": [[["leaky_re_lu_23", 0, 0, {}]]]}, {"config": {"gamma_regularizer": null, "scale": true, "trainable": true, "beta_constraint": null, "center": true, "moving_variance_initializer": {"class_name": "Ones", "config": {}}, "beta_initializer": {"class_name": "Zeros", "config": {}}, "name": "batch_normalization_24", "beta_regularizer": null, "moving_mean_initializer": {"class_name": "Zeros", "config": {}}, "momentum": 0.99, "gamma_initializer": {"class_name": "Ones", "config": {}}, "axis": 1, "gamma_constraint": null, "epsilon": 0.001}, "class_name": "BatchNormalization", "name": "batch_normalization_24", "inbound_nodes": [[["conv3d_25", 0, 0, {}]]]}, {"config": {"name": "leaky_re_lu_24", "trainable": true, "alpha": 0.30000001192092896}, "class_name": "LeakyReLU", "name": "leaky_re_lu_24", "inbound_nodes": [[["batch_normalization_24", 0, 0, {}]]]}, {"config": {"name": "up_sampling3d_4", "trainable": true, "data_format": "channels_first", "size": [2, 2, 2]}, "class_name": "UpSampling3D", "name": "up_sampling3d_4", "inbound_nodes": [[["leaky_re_lu_24", 0, 0, {}]]]}, {"config": {"kernel_regularizer": null, "activity_regularizer": null, "trainable": true, "kernel_size": [3, 3, 3], "name": "conv3d_27", "kernel_initializer": {"class_name": "VarianceScaling", "config": {"mode": "fan_avg", "distribution": "uniform", "scale": 1.0, "seed": null}}, "filters": 16, "kernel_constraint": null, "bias_initializer": {"class_name": "Zeros", "config": {}}, "bias_constraint": null, "bias_regularizer": null, "use_bias": true, "dilation_rate": [1, 1, 1], "padding": "same", "strides": [1, 1, 1], "data_format": "channels_first", "activation": "linear"}, "class_name": "Conv3D", "name": "conv3d_27", "inbound_nodes": [[["up_sampling3d_4", 0, 0, {}]]]}, {"config": {"gamma_regularizer": null, "scale": true, "trainable": true, "beta_constraint": null, "center": true, "moving_variance_initializer": {"class_name": "Ones", "config": {}}, "beta_initializer": {"class_name": "Zeros", "config": {}}, "name": "batch_normalization_25", "beta_regularizer": null, "moving_mean_initializer": {"class_name": "Zeros", "config": {}}, "momentum": 0.99, "gamma_initializer": {"class_name": "Ones", "config": {}}, "axis": 1, "gamma_constraint": null, "epsilon": 0.001}, "class_name": "BatchNormalization", "name": "batch_normalization_25", "inbound_nodes": [[["conv3d_27", 0, 0, {}]]]}, {"config": {"name": "leaky_re_lu_25", "trainable": true, "alpha": 0.30000001192092896}, "class_name": "LeakyReLU", "name": "leaky_re_lu_25", "inbound_nodes": [[["batch_normalization_25", 0, 0, {}]]]}, {"config": {"name": "concatenate_4", "axis": 1, "trainable": true}, "class_name": "Concatenate", "name": "concatenate_4", "inbound_nodes": [[["add_1", 0, 0, {}], ["leaky_re_lu_25", 0, 0, {}]]]}, {"config": {"kernel_regularizer": null, "activity_regularizer": null, "trainable": true, "kernel_size": [3, 3, 3], "name": "conv3d_28", "kernel_initializer": {"class_name": "VarianceScaling", "config": {"mode": "fan_avg", "distribution": "uniform", "scale": 1.0, "seed": null}}, "filters": 16, "kernel_constraint": null, "bias_initializer": {"class_name": "Zeros", "config": {}}, "bias_constraint": null, "bias_regularizer": null, "use_bias": true, "dilation_rate": [1, 1, 1], "padding": "same", "strides": [1, 1, 1], "data_format": "channels_first", "activation": "linear"}, "class_name": "Conv3D", "name": "conv3d_28", "inbound_nodes": [[["concatenate_4", 0, 0, {}]]]}, {"config": {"gamma_regularizer": null, "scale": true, "trainable": true, "beta_constraint": null, "center": true, "moving_variance_initializer": {"class_name": "Ones", "config": {}}, "beta_initializer": {"class_name": "Zeros", "config": {}}, "name": "batch_normalization_26", "beta_regularizer": null, "moving_mean_initializer": {"class_name": "Zeros", "config": {}}, "momentum": 0.99, "gamma_initializer": {"class_name": "Ones", "config": {}}, "axis": 1, "gamma_constraint": null, "epsilon": 0.001}, "class_name": "BatchNormalization", "name": "batch_normalization_26", "inbound_nodes": [[["conv3d_28", 0, 0, {}]]]}, {"config": {"name": "leaky_re_lu_26", "trainable": true, "alpha": 0.30000001192092896}, "class_name": "LeakyReLU", "name": "leaky_re_lu_26", "inbound_nodes": [[["batch_normalization_26", 0, 0, {}]]]}, {"config": {"kernel_regularizer": null, "activity_regularizer": null, "trainable": true, "kernel_size": [1, 1, 1], "name": "conv3d_22", "kernel_initializer": {"class_name": "VarianceScaling", "config": {"mode": "fan_avg", "distribution": "uniform", "scale": 1.0, "seed": null}}, "filters": 2, "kernel_constraint": null, "bias_initializer": {"class_name": "Zeros", "config": {}}, "bias_constraint": null, "bias_regularizer": null, "use_bias": true, "dilation_rate": [1, 1, 1], "padding": "valid", "strides": [1, 1, 1], "data_format": "channels_first", "activation": "linear"}, "class_name": "Conv3D", "name": "conv3d_22", "inbound_nodes": [[["leaky_re_lu_21", 0, 0, {}]]]}, {"config": {"kernel_regularizer": null, "activity_regularizer": null, "trainable": true, "kernel_size": [1, 1, 1], "name": "conv3d_29", "kernel_initializer": {"class_name": "VarianceScaling", "config": {"mode": "fan_avg", "distribution": "uniform", "scale": 1.0, "seed": null}}, "filters": 16, "kernel_constraint": null, "bias_initializer": {"class_name": "Zeros", "config": {}}, "bias_constraint": null, "bias_regularizer": null, "use_bias": true, "dilation_rate": [1, 1, 1], "padding": "same", "strides": [1, 1, 1], "data_format": "channels_first", "activation": "linear"}, "class_name": "Conv3D", "name": "conv3d_29", "inbound_nodes": [[["leaky_re_lu_26", 0, 0, {}]]]}, {"config": {"name": "up_sampling3d_5", "trainable": true, "data_format": "channels_first", "size": [2, 2, 2]}, "class_name": "UpSampling3D", "name": "up_sampling3d_5", "inbound_nodes": [[["conv3d_22", 0, 0, {}]]]}, {"config": {"kernel_regularizer": null, "activity_regularizer": null, "trainable": true, "kernel_size": [1, 1, 1], "name": "conv3d_26", "kernel_initializer": {"class_name": "VarianceScaling", "config": {"mode": "fan_avg", "distribution": "uniform", "scale": 1.0, "seed": null}}, "filters": 2, "kernel_constraint": null, "bias_initializer": {"class_name": "Zeros", "config": {}}, "bias_constraint": null, "bias_regularizer": null, "use_bias": true, "dilation_rate": [1, 1, 1], "padding": "valid", "strides": [1, 1, 1], "data_format": "channels_first", "activation": "linear"}, "class_name": "Conv3D", "name": "conv3d_26", "inbound_nodes": [[["leaky_re_lu_24", 0, 0, {}]]]}, {"config": {"gamma_regularizer": null, "scale": true, "trainable": true, "beta_constraint": null, "center": true, "moving_variance_initializer": {"class_name": "Ones", "config": {}}, "beta_initializer": {"class_name": "Zeros", "config": {}}, "name": "batch_normalization_27", "beta_regularizer": null, "moving_mean_initializer": {"class_name": "Zeros", "config": {}}, "momentum": 0.99, "gamma_initializer": {"class_name": "Ones", "config": {}}, "axis": 1, "gamma_constraint": null, "epsilon": 0.001}, "class_name": "BatchNormalization", "name": "batch_normalization_27", "inbound_nodes": [[["conv3d_29", 0, 0, {}]]]}, {"config": {"name": "add_6", "trainable": true}, "class_name": "Add", "name": "add_6", "inbound_nodes": [[["up_sampling3d_5", 0, 0, {}], ["conv3d_26", 0, 0, {}]]]}, {"config": {"name": "leaky_re_lu_27", "trainable": true, "alpha": 0.30000001192092896}, "class_name": "LeakyReLU", "name": "leaky_re_lu_27", "inbound_nodes": [[["batch_normalization_27", 0, 0, {}]]]}, {"config": {"name": "up_sampling3d_6", "trainable": true, "data_format": "channels_first", "size": [2, 2, 2]}, "class_name": "UpSampling3D", "name": "up_sampling3d_6", "inbound_nodes": [[["add_6", 0, 0, {}]]]}, {"config": {"kernel_regularizer": null, "activity_regularizer": null, "trainable": true, "kernel_size": [1, 1, 1], "name": "conv3d_30", "kernel_initializer": {"class_name": "VarianceScaling", "config": {"mode": "fan_avg", "distribution": "uniform", "scale": 1.0, "seed": null}}, "filters": 2, "kernel_constraint": null, "bias_initializer": {"class_name": "Zeros", "config": {}}, "bias_constraint": null, "bias_regularizer": null, "use_bias": true, "dilation_rate": [1, 1, 1], "padding": "valid", "strides": [1, 1, 1], "data_format": "channels_first", "activation": "linear"}, "class_name": "Conv3D", "name": "conv3d_30", "inbound_nodes": [[["leaky_re_lu_27", 0, 0, {}]]]}, {"config": {"name": "add_7", "trainable": true}, "class_name": "Add", "name": "add_7", "inbound_nodes": [[["up_sampling3d_6", 0, 0, {}], ["conv3d_30", 0, 0, {}]]]}, {"config": {"name": "activation_1", "activation": "sigmoid", "trainable": true}, "class_name": "Activation", "name": "activation_1", "inbound_nodes": [[["add_7", 0, 0, {}]]]}], "output_layers": [["activation_1", 0, 0]], "input_layers": [["input_1", 0, 0]], "name": "model_1"}, "class_name": "Model", "backend": "tensorflow", "keras_version": "2.1.5"}