{"config": {"layers": [{"inbound_nodes": [], "name": "input_1", "config": {"name": "input_1", "sparse": false, "batch_input_shape": [null, 1, 80, 80, 32], "dtype": "float32"}, "class_name": "InputLayer"}, {"inbound_nodes": [[["input_1", 0, 0, {}]]], "name": "conv3d_1", "config": {"activation": "linear", "padding": "same", "name": "conv3d_1", "kernel_size": [3, 3, 3], "dilation_rate": [1, 1, 1], "strides": [1, 1, 1], "data_format": "channels_first", "use_bias": true, "bias_initializer": {"config": {}, "class_name": "Zeros"}, "kernel_initializer": {"config": {"scale": 1.0, "seed": null, "distribution": "uniform", "mode": "fan_avg"}, "class_name": "VarianceScaling"}, "filters": 16, "kernel_regularizer": null, "bias_constraint": null, "activity_regularizer": null, "trainable": true, "bias_regularizer": null, "kernel_constraint": null}, "class_name": "Conv3D"}, {"inbound_nodes": [[["conv3d_1", 0, 0, {}]]], "name": "batch_normalization_1", "config": {"epsilon": 0.001, "momentum": 0.99, "axis": 1, "center": true, "moving_variance_initializer": {"config": {}, "class_name": "Ones"}, "gamma_regularizer": null, "beta_initializer": {"config": {}, "class_name": "Zeros"}, "moving_mean_initializer": {"config": {}, "class_name": "Zeros"}, "name": "batch_normalization_1", "gamma_constraint": null, "beta_constraint": null, "beta_regularizer": null, "trainable": true, "scale": true, "gamma_initializer": {"config": {}, "class_name": "Ones"}}, "class_name": "BatchNormalization"}, {"inbound_nodes": [[["batch_normalization_1", 0, 0, {}]]], "name": "leaky_re_lu_1", "config": {"trainable": true, "name": "leaky_re_lu_1", "alpha": 0.30000001192092896}, "class_name": "LeakyReLU"}, {"inbound_nodes": [[["leaky_re_lu_1", 0, 0, {}]]], "name": "conv3d_2", "config": {"activation": "linear", "padding": "same", "name": "conv3d_2", "kernel_size": [3, 3, 3], "dilation_rate": [1, 1, 1], "strides": [1, 1, 1], "data_format": "channels_first", "use_bias": true, "bias_initializer": {"config": {}, "class_name": "Zeros"}, "kernel_initializer": {"config": {"scale": 1.0, "seed": null, "distribution": "uniform", "mode": "fan_avg"}, "class_name": "VarianceScaling"}, "filters": 16, "kernel_regularizer": null, "bias_constraint": null, "activity_regularizer": null, "trainable": true, "bias_regularizer": null, "kernel_constraint": null}, "class_name": "Conv3D"}, {"inbound_nodes": [[["conv3d_2", 0, 0, {}]]], "name": "batch_normalization_2", "config": {"epsilon": 0.001, "momentum": 0.99, "axis": 1, "center": true, "moving_variance_initializer": {"config": {}, "class_name": "Ones"}, "gamma_regularizer": null, "beta_initializer": {"config": {}, "class_name": "Zeros"}, "moving_mean_initializer": {"config": {}, "class_name": "Zeros"}, "name": "batch_normalization_2", "gamma_constraint": null, "beta_constraint": null, "beta_regularizer": null, "trainable": true, "scale": true, "gamma_initializer": {"config": {}, "class_name": "Ones"}}, "class_name": "BatchNormalization"}, {"inbound_nodes": [[["batch_normalization_2", 0, 0, {}]]], "name": "leaky_re_lu_2", "config": {"trainable": true, "name": "leaky_re_lu_2", "alpha": 0.30000001192092896}, "class_name": "LeakyReLU"}, {"inbound_nodes": [[["leaky_re_lu_2", 0, 0, {}]]], "name": "spatial_dropout3d_1", "config": {"rate": 0.3, "trainable": true, "name": "spatial_dropout3d_1", "noise_shape": null, "seed": null}, "class_name": "SpatialDropout3D"}, {"inbound_nodes": [[["spatial_dropout3d_1", 0, 0, {}]]], "name": "conv3d_3", "config": {"activation": "linear", "padding": "same", "name": "conv3d_3", "kernel_size": [3, 3, 3], "dilation_rate": [1, 1, 1], "strides": [1, 1, 1], "data_format": "channels_first", "use_bias": true, "bias_initializer": {"config": {}, "class_name": "Zeros"}, "kernel_initializer": {"config": {"scale": 1.0, "seed": null, "distribution": "uniform", "mode": "fan_avg"}, "class_name": "VarianceScaling"}, "filters": 16, "kernel_regularizer": null, "bias_constraint": null, "activity_regularizer": null, "trainable": true, "bias_regularizer": null, "kernel_constraint": null}, "class_name": "Conv3D"}, {"inbound_nodes": [[["conv3d_3", 0, 0, {}]]], "name": "batch_normalization_3", "config": {"epsilon": 0.001, "momentum": 0.99, "axis": 1, "center": true, "moving_variance_initializer": {"config": {}, "class_name": "Ones"}, "gamma_regularizer": null, "beta_initializer": {"config": {}, "class_name": "Zeros"}, "moving_mean_initializer": {"config": {}, "class_name": "Zeros"}, "name": "batch_normalization_3", "gamma_constraint": null, "beta_constraint": null, "beta_regularizer": null, "trainable": true, "scale": true, "gamma_initializer": {"config": {}, "class_name": "Ones"}}, "class_name": "BatchNormalization"}, {"inbound_nodes": [[["batch_normalization_3", 0, 0, {}]]], "name": "leaky_re_lu_3", "config": {"trainable": true, "name": "leaky_re_lu_3", "alpha": 0.30000001192092896}, "class_name": "LeakyReLU"}, {"inbound_nodes": [[["leaky_re_lu_1", 0, 0, {}], ["leaky_re_lu_3", 0, 0, {}]]], "name": "add_1", "config": {"trainable": true, "name": "add_1"}, "class_name": "Add"}, {"inbound_nodes": [[["add_1", 0, 0, {}]]], "name": "conv3d_4", "config": {"activation": "linear", "padding": "same", "name": "conv3d_4", "kernel_size": [3, 3, 3], "dilation_rate": [1, 1, 1], "strides": [2, 2, 2], "data_format": "channels_first", "use_bias": true, "bias_initializer": {"config": {}, "class_name": "Zeros"}, "kernel_initializer": {"config": {"scale": 1.0, "seed": null, "distribution": "uniform", "mode": "fan_avg"}, "class_name": "VarianceScaling"}, "filters": 32, "kernel_regularizer": null, "bias_constraint": null, "activity_regularizer": null, "trainable": true, "bias_regularizer": null, "kernel_constraint": null}, "class_name": "Conv3D"}, {"inbound_nodes": [[["conv3d_4", 0, 0, {}]]], "name": "batch_normalization_4", "config": {"epsilon": 0.001, "momentum": 0.99, "axis": 1, "center": true, "moving_variance_initializer": {"config": {}, "class_name": "Ones"}, "gamma_regularizer": null, "beta_initializer": {"config": {}, "class_name": "Zeros"}, "moving_mean_initializer": {"config": {}, "class_name": "Zeros"}, "name": "batch_normalization_4", "gamma_constraint": null, "beta_constraint": null, "beta_regularizer": null, "trainable": true, "scale": true, "gamma_initializer": {"config": {}, "class_name": "Ones"}}, "class_name": "BatchNormalization"}, {"inbound_nodes": [[["batch_normalization_4", 0, 0, {}]]], "name": "leaky_re_lu_4", "config": {"trainable": true, "name": "leaky_re_lu_4", "alpha": 0.30000001192092896}, "class_name": "LeakyReLU"}, {"inbound_nodes": [[["leaky_re_lu_4", 0, 0, {}]]], "name": "conv3d_5", "config": {"activation": "linear", "padding": "same", "name": "conv3d_5", "kernel_size": [3, 3, 3], "dilation_rate": [1, 1, 1], "strides": [1, 1, 1], "data_format": "channels_first", "use_bias": true, "bias_initializer": {"config": {}, "class_name": "Zeros"}, "kernel_initializer": {"config": {"scale": 1.0, "seed": null, "distribution": "uniform", "mode": "fan_avg"}, "class_name": "VarianceScaling"}, "filters": 32, "kernel_regularizer": null, "bias_constraint": null, "activity_regularizer": null, "trainable": true, "bias_regularizer": null, "kernel_constraint": null}, "class_name": "Conv3D"}, {"inbound_nodes": [[["conv3d_5", 0, 0, {}]]], "name": "batch_normalization_5", "config": {"epsilon": 0.001, "momentum": 0.99, "axis": 1, "center": true, "moving_variance_initializer": {"config": {}, "class_name": "Ones"}, "gamma_regularizer": null, "beta_initializer": {"config": {}, "class_name": "Zeros"}, "moving_mean_initializer": {"config": {}, "class_name": "Zeros"}, "name": "batch_normalization_5", "gamma_constraint": null, "beta_constraint": null, "beta_regularizer": null, "trainable": true, "scale": true, "gamma_initializer": {"config": {}, "class_name": "Ones"}}, "class_name": "BatchNormalization"}, {"inbound_nodes": [[["batch_normalization_5", 0, 0, {}]]], "name": "leaky_re_lu_5", "config": {"trainable": true, "name": "leaky_re_lu_5", "alpha": 0.30000001192092896}, "class_name": "LeakyReLU"}, {"inbound_nodes": [[["leaky_re_lu_5", 0, 0, {}]]], "name": "spatial_dropout3d_2", "config": {"rate": 0.3, "trainable": true, "name": "spatial_dropout3d_2", "noise_shape": null, "seed": null}, "class_name": "SpatialDropout3D"}, {"inbound_nodes": [[["spatial_dropout3d_2", 0, 0, {}]]], "name": "conv3d_6", "config": {"activation": "linear", "padding": "same", "name": "conv3d_6", "kernel_size": [3, 3, 3], "dilation_rate": [1, 1, 1], "strides": [1, 1, 1], "data_format": "channels_first", "use_bias": true, "bias_initializer": {"config": {}, "class_name": "Zeros"}, "kernel_initializer": {"config": {"scale": 1.0, "seed": null, "distribution": "uniform", "mode": "fan_avg"}, "class_name": "VarianceScaling"}, "filters": 32, "kernel_regularizer": null, "bias_constraint": null, "activity_regularizer": null, "trainable": true, "bias_regularizer": null, "kernel_constraint": null}, "class_name": "Conv3D"}, {"inbound_nodes": [[["conv3d_6", 0, 0, {}]]], "name": "batch_normalization_6", "config": {"epsilon": 0.001, "momentum": 0.99, "axis": 1, "center": true, "moving_variance_initializer": {"config": {}, "class_name": "Ones"}, "gamma_regularizer": null, "beta_initializer": {"config": {}, "class_name": "Zeros"}, "moving_mean_initializer": {"config": {}, "class_name": "Zeros"}, "name": "batch_normalization_6", "gamma_constraint": null, "beta_constraint": null, "beta_regularizer": null, "trainable": true, "scale": true, "gamma_initializer": {"config": {}, "class_name": "Ones"}}, "class_name": "BatchNormalization"}, {"inbound_nodes": [[["batch_normalization_6", 0, 0, {}]]], "name": "leaky_re_lu_6", "config": {"trainable": true, "name": "leaky_re_lu_6", "alpha": 0.30000001192092896}, "class_name": "LeakyReLU"}, {"inbound_nodes": [[["leaky_re_lu_4", 0, 0, {}], ["leaky_re_lu_6", 0, 0, {}]]], "name": "add_2", "config": {"trainable": true, "name": "add_2"}, "class_name": "Add"}, {"inbound_nodes": [[["add_2", 0, 0, {}]]], "name": "conv3d_7", "config": {"activation": "linear", "padding": "same", "name": "conv3d_7", "kernel_size": [3, 3, 3], "dilation_rate": [1, 1, 1], "strides": [2, 2, 2], "data_format": "channels_first", "use_bias": true, "bias_initializer": {"config": {}, "class_name": "Zeros"}, "kernel_initializer": {"config": {"scale": 1.0, "seed": null, "distribution": "uniform", "mode": "fan_avg"}, "class_name": "VarianceScaling"}, "filters": 64, "kernel_regularizer": null, "bias_constraint": null, "activity_regularizer": null, "trainable": true, "bias_regularizer": null, "kernel_constraint": null}, "class_name": "Conv3D"}, {"inbound_nodes": [[["conv3d_7", 0, 0, {}]]], "name": "batch_normalization_7", "config": {"epsilon": 0.001, "momentum": 0.99, "axis": 1, "center": true, "moving_variance_initializer": {"config": {}, "class_name": "Ones"}, "gamma_regularizer": null, "beta_initializer": {"config": {}, "class_name": "Zeros"}, "moving_mean_initializer": {"config": {}, "class_name": "Zeros"}, "name": "batch_normalization_7", "gamma_constraint": null, "beta_constraint": null, "beta_regularizer": null, "trainable": true, "scale": true, "gamma_initializer": {"config": {}, "class_name": "Ones"}}, "class_name": "BatchNormalization"}, {"inbound_nodes": [[["batch_normalization_7", 0, 0, {}]]], "name": "leaky_re_lu_7", "config": {"trainable": true, "name": "leaky_re_lu_7", "alpha": 0.30000001192092896}, "class_name": "LeakyReLU"}, {"inbound_nodes": [[["leaky_re_lu_7", 0, 0, {}]]], "name": "conv3d_8", "config": {"activation": "linear", "padding": "same", "name": "conv3d_8", "kernel_size": [3, 3, 3], "dilation_rate": [1, 1, 1], "strides": [1, 1, 1], "data_format": "channels_first", "use_bias": true, "bias_initializer": {"config": {}, "class_name": "Zeros"}, "kernel_initializer": {"config": {"scale": 1.0, "seed": null, "distribution": "uniform", "mode": "fan_avg"}, "class_name": "VarianceScaling"}, "filters": 64, "kernel_regularizer": null, "bias_constraint": null, "activity_regularizer": null, "trainable": true, "bias_regularizer": null, "kernel_constraint": null}, "class_name": "Conv3D"}, {"inbound_nodes": [[["conv3d_8", 0, 0, {}]]], "name": "batch_normalization_8", "config": {"epsilon": 0.001, "momentum": 0.99, "axis": 1, "center": true, "moving_variance_initializer": {"config": {}, "class_name": "Ones"}, "gamma_regularizer": null, "beta_initializer": {"config": {}, "class_name": "Zeros"}, "moving_mean_initializer": {"config": {}, "class_name": "Zeros"}, "name": "batch_normalization_8", "gamma_constraint": null, "beta_constraint": null, "beta_regularizer": null, "trainable": true, "scale": true, "gamma_initializer": {"config": {}, "class_name": "Ones"}}, "class_name": "BatchNormalization"}, {"inbound_nodes": [[["batch_normalization_8", 0, 0, {}]]], "name": "leaky_re_lu_8", "config": {"trainable": true, "name": "leaky_re_lu_8", "alpha": 0.30000001192092896}, "class_name": "LeakyReLU"}, {"inbound_nodes": [[["leaky_re_lu_8", 0, 0, {}]]], "name": "spatial_dropout3d_3", "config": {"rate": 0.3, "trainable": true, "name": "spatial_dropout3d_3", "noise_shape": null, "seed": null}, "class_name": "SpatialDropout3D"}, {"inbound_nodes": [[["spatial_dropout3d_3", 0, 0, {}]]], "name": "conv3d_9", "config": {"activation": "linear", "padding": "same", "name": "conv3d_9", "kernel_size": [3, 3, 3], "dilation_rate": [1, 1, 1], "strides": [1, 1, 1], "data_format": "channels_first", "use_bias": true, "bias_initializer": {"config": {}, "class_name": "Zeros"}, "kernel_initializer": {"config": {"scale": 1.0, "seed": null, "distribution": "uniform", "mode": "fan_avg"}, "class_name": "VarianceScaling"}, "filters": 64, "kernel_regularizer": null, "bias_constraint": null, "activity_regularizer": null, "trainable": true, "bias_regularizer": null, "kernel_constraint": null}, "class_name": "Conv3D"}, {"inbound_nodes": [[["conv3d_9", 0, 0, {}]]], "name": "batch_normalization_9", "config": {"epsilon": 0.001, "momentum": 0.99, "axis": 1, "center": true, "moving_variance_initializer": {"config": {}, "class_name": "Ones"}, "gamma_regularizer": null, "beta_initializer": {"config": {}, "class_name": "Zeros"}, "moving_mean_initializer": {"config": {}, "class_name": "Zeros"}, "name": "batch_normalization_9", "gamma_constraint": null, "beta_constraint": null, "beta_regularizer": null, "trainable": true, "scale": true, "gamma_initializer": {"config": {}, "class_name": "Ones"}}, "class_name": "BatchNormalization"}, {"inbound_nodes": [[["batch_normalization_9", 0, 0, {}]]], "name": "leaky_re_lu_9", "config": {"trainable": true, "name": "leaky_re_lu_9", "alpha": 0.30000001192092896}, "class_name": "LeakyReLU"}, {"inbound_nodes": [[["leaky_re_lu_7", 0, 0, {}], ["leaky_re_lu_9", 0, 0, {}]]], "name": "add_3", "config": {"trainable": true, "name": "add_3"}, "class_name": "Add"}, {"inbound_nodes": [[["add_3", 0, 0, {}]]], "name": "conv3d_10", "config": {"activation": "linear", "padding": "same", "name": "conv3d_10", "kernel_size": [3, 3, 3], "dilation_rate": [1, 1, 1], "strides": [2, 2, 2], "data_format": "channels_first", "use_bias": true, "bias_initializer": {"config": {}, "class_name": "Zeros"}, "kernel_initializer": {"config": {"scale": 1.0, "seed": null, "distribution": "uniform", "mode": "fan_avg"}, "class_name": "VarianceScaling"}, "filters": 128, "kernel_regularizer": null, "bias_constraint": null, "activity_regularizer": null, "trainable": true, "bias_regularizer": null, "kernel_constraint": null}, "class_name": "Conv3D"}, {"inbound_nodes": [[["conv3d_10", 0, 0, {}]]], "name": "batch_normalization_10", "config": {"epsilon": 0.001, "momentum": 0.99, "axis": 1, "center": true, "moving_variance_initializer": {"config": {}, "class_name": "Ones"}, "gamma_regularizer": null, "beta_initializer": {"config": {}, "class_name": "Zeros"}, "moving_mean_initializer": {"config": {}, "class_name": "Zeros"}, "name": "batch_normalization_10", "gamma_constraint": null, "beta_constraint": null, "beta_regularizer": null, "trainable": true, "scale": true, "gamma_initializer": {"config": {}, "class_name": "Ones"}}, "class_name": "BatchNormalization"}, {"inbound_nodes": [[["batch_normalization_10", 0, 0, {}]]], "name": "leaky_re_lu_10", "config": {"trainable": true, "name": "leaky_re_lu_10", "alpha": 0.30000001192092896}, "class_name": "LeakyReLU"}, {"inbound_nodes": [[["leaky_re_lu_10", 0, 0, {}]]], "name": "conv3d_11", "config": {"activation": "linear", "padding": "same", "name": "conv3d_11", "kernel_size": [3, 3, 3], "dilation_rate": [1, 1, 1], "strides": [1, 1, 1], "data_format": "channels_first", "use_bias": true, "bias_initializer": {"config": {}, "class_name": "Zeros"}, "kernel_initializer": {"config": {"scale": 1.0, "seed": null, "distribution": "uniform", "mode": "fan_avg"}, "class_name": "VarianceScaling"}, "filters": 128, "kernel_regularizer": null, "bias_constraint": null, "activity_regularizer": null, "trainable": true, "bias_regularizer": null, "kernel_constraint": null}, "class_name": "Conv3D"}, {"inbound_nodes": [[["conv3d_11", 0, 0, {}]]], "name": "batch_normalization_11", "config": {"epsilon": 0.001, "momentum": 0.99, "axis": 1, "center": true, "moving_variance_initializer": {"config": {}, "class_name": "Ones"}, "gamma_regularizer": null, "beta_initializer": {"config": {}, "class_name": "Zeros"}, "moving_mean_initializer": {"config": {}, "class_name": "Zeros"}, "name": "batch_normalization_11", "gamma_constraint": null, "beta_constraint": null, "beta_regularizer": null, "trainable": true, "scale": true, "gamma_initializer": {"config": {}, "class_name": "Ones"}}, "class_name": "BatchNormalization"}, {"inbound_nodes": [[["batch_normalization_11", 0, 0, {}]]], "name": "leaky_re_lu_11", "config": {"trainable": true, "name": "leaky_re_lu_11", "alpha": 0.30000001192092896}, "class_name": "LeakyReLU"}, {"inbound_nodes": [[["leaky_re_lu_11", 0, 0, {}]]], "name": "spatial_dropout3d_4", "config": {"rate": 0.3, "trainable": true, "name": "spatial_dropout3d_4", "noise_shape": null, "seed": null}, "class_name": "SpatialDropout3D"}, {"inbound_nodes": [[["spatial_dropout3d_4", 0, 0, {}]]], "name": "conv3d_12", "config": {"activation": "linear", "padding": "same", "name": "conv3d_12", "kernel_size": [3, 3, 3], "dilation_rate": [1, 1, 1], "strides": [1, 1, 1], "data_format": "channels_first", "use_bias": true, "bias_initializer": {"config": {}, "class_name": "Zeros"}, "kernel_initializer": {"config": {"scale": 1.0, "seed": null, "distribution": "uniform", "mode": "fan_avg"}, "class_name": "VarianceScaling"}, "filters": 128, "kernel_regularizer": null, "bias_constraint": null, "activity_regularizer": null, "trainable": true, "bias_regularizer": null, "kernel_constraint": null}, "class_name": "Conv3D"}, {"inbound_nodes": [[["conv3d_12", 0, 0, {}]]], "name": "batch_normalization_12", "config": {"epsilon": 0.001, "momentum": 0.99, "axis": 1, "center": true, "moving_variance_initializer": {"config": {}, "class_name": "Ones"}, "gamma_regularizer": null, "beta_initializer": {"config": {}, "class_name": "Zeros"}, "moving_mean_initializer": {"config": {}, "class_name": "Zeros"}, "name": "batch_normalization_12", "gamma_constraint": null, "beta_constraint": null, "beta_regularizer": null, "trainable": true, "scale": true, "gamma_initializer": {"config": {}, "class_name": "Ones"}}, "class_name": "BatchNormalization"}, {"inbound_nodes": [[["batch_normalization_12", 0, 0, {}]]], "name": "leaky_re_lu_12", "config": {"trainable": true, "name": "leaky_re_lu_12", "alpha": 0.30000001192092896}, "class_name": "LeakyReLU"}, {"inbound_nodes": [[["leaky_re_lu_10", 0, 0, {}], ["leaky_re_lu_12", 0, 0, {}]]], "name": "add_4", "config": {"trainable": true, "name": "add_4"}, "class_name": "Add"}, {"inbound_nodes": [[["add_4", 0, 0, {}]]], "name": "conv3d_13", "config": {"activation": "linear", "padding": "same", "name": "conv3d_13", "kernel_size": [3, 3, 3], "dilation_rate": [1, 1, 1], "strides": [2, 2, 2], "data_format": "channels_first", "use_bias": true, "bias_initializer": {"config": {}, "class_name": "Zeros"}, "kernel_initializer": {"config": {"scale": 1.0, "seed": null, "distribution": "uniform", "mode": "fan_avg"}, "class_name": "VarianceScaling"}, "filters": 256, "kernel_regularizer": null, "bias_constraint": null, "activity_regularizer": null, "trainable": true, "bias_regularizer": null, "kernel_constraint": null}, "class_name": "Conv3D"}, {"inbound_nodes": [[["conv3d_13", 0, 0, {}]]], "name": "batch_normalization_13", "config": {"epsilon": 0.001, "momentum": 0.99, "axis": 1, "center": true, "moving_variance_initializer": {"config": {}, "class_name": "Ones"}, "gamma_regularizer": null, "beta_initializer": {"config": {}, "class_name": "Zeros"}, "moving_mean_initializer": {"config": {}, "class_name": "Zeros"}, "name": "batch_normalization_13", "gamma_constraint": null, "beta_constraint": null, "beta_regularizer": null, "trainable": true, "scale": true, "gamma_initializer": {"config": {}, "class_name": "Ones"}}, "class_name": "BatchNormalization"}, {"inbound_nodes": [[["batch_normalization_13", 0, 0, {}]]], "name": "leaky_re_lu_13", "config": {"trainable": true, "name": "leaky_re_lu_13", "alpha": 0.30000001192092896}, "class_name": "LeakyReLU"}, {"inbound_nodes": [[["leaky_re_lu_13", 0, 0, {}]]], "name": "conv3d_14", "config": {"activation": "linear", "padding": "same", "name": "conv3d_14", "kernel_size": [3, 3, 3], "dilation_rate": [1, 1, 1], "strides": [1, 1, 1], "data_format": "channels_first", "use_bias": true, "bias_initializer": {"config": {}, "class_name": "Zeros"}, "kernel_initializer": {"config": {"scale": 1.0, "seed": null, "distribution": "uniform", "mode": "fan_avg"}, "class_name": "VarianceScaling"}, "filters": 256, "kernel_regularizer": null, "bias_constraint": null, "activity_regularizer": null, "trainable": true, "bias_regularizer": null, "kernel_constraint": null}, "class_name": "Conv3D"}, {"inbound_nodes": [[["conv3d_14", 0, 0, {}]]], "name": "batch_normalization_14", "config": {"epsilon": 0.001, "momentum": 0.99, "axis": 1, "center": true, "moving_variance_initializer": {"config": {}, "class_name": "Ones"}, "gamma_regularizer": null, "beta_initializer": {"config": {}, "class_name": "Zeros"}, "moving_mean_initializer": {"config": {}, "class_name": "Zeros"}, "name": "batch_normalization_14", "gamma_constraint": null, "beta_constraint": null, "beta_regularizer": null, "trainable": true, "scale": true, "gamma_initializer": {"config": {}, "class_name": "Ones"}}, "class_name": "BatchNormalization"}, {"inbound_nodes": [[["batch_normalization_14", 0, 0, {}]]], "name": "leaky_re_lu_14", "config": {"trainable": true, "name": "leaky_re_lu_14", "alpha": 0.30000001192092896}, "class_name": "LeakyReLU"}, {"inbound_nodes": [[["leaky_re_lu_14", 0, 0, {}]]], "name": "spatial_dropout3d_5", "config": {"rate": 0.3, "trainable": true, "name": "spatial_dropout3d_5", "noise_shape": null, "seed": null}, "class_name": "SpatialDropout3D"}, {"inbound_nodes": [[["spatial_dropout3d_5", 0, 0, {}]]], "name": "conv3d_15", "config": {"activation": "linear", "padding": "same", "name": "conv3d_15", "kernel_size": [3, 3, 3], "dilation_rate": [1, 1, 1], "strides": [1, 1, 1], "data_format": "channels_first", "use_bias": true, "bias_initializer": {"config": {}, "class_name": "Zeros"}, "kernel_initializer": {"config": {"scale": 1.0, "seed": null, "distribution": "uniform", "mode": "fan_avg"}, "class_name": "VarianceScaling"}, "filters": 256, "kernel_regularizer": null, "bias_constraint": null, "activity_regularizer": null, "trainable": true, "bias_regularizer": null, "kernel_constraint": null}, "class_name": "Conv3D"}, {"inbound_nodes": [[["conv3d_15", 0, 0, {}]]], "name": "batch_normalization_15", "config": {"epsilon": 0.001, "momentum": 0.99, "axis": 1, "center": true, "moving_variance_initializer": {"config": {}, "class_name": "Ones"}, "gamma_regularizer": null, "beta_initializer": {"config": {}, "class_name": "Zeros"}, "moving_mean_initializer": {"config": {}, "class_name": "Zeros"}, "name": "batch_normalization_15", "gamma_constraint": null, "beta_constraint": null, "beta_regularizer": null, "trainable": true, "scale": true, "gamma_initializer": {"config": {}, "class_name": "Ones"}}, "class_name": "BatchNormalization"}, {"inbound_nodes": [[["batch_normalization_15", 0, 0, {}]]], "name": "leaky_re_lu_15", "config": {"trainable": true, "name": "leaky_re_lu_15", "alpha": 0.30000001192092896}, "class_name": "LeakyReLU"}, {"inbound_nodes": [[["leaky_re_lu_13", 0, 0, {}], ["leaky_re_lu_15", 0, 0, {}]]], "name": "add_5", "config": {"trainable": true, "name": "add_5"}, "class_name": "Add"}, {"inbound_nodes": [[["add_5", 0, 0, {}]]], "name": "up_sampling3d_1", "config": {"size": [2, 2, 2], "trainable": true, "name": "up_sampling3d_1", "data_format": "channels_first"}, "class_name": "UpSampling3D"}, {"inbound_nodes": [[["up_sampling3d_1", 0, 0, {}]]], "name": "conv3d_16", "config": {"activation": "linear", "padding": "same", "name": "conv3d_16", "kernel_size": [3, 3, 3], "dilation_rate": [1, 1, 1], "strides": [1, 1, 1], "data_format": "channels_first", "use_bias": true, "bias_initializer": {"config": {}, "class_name": "Zeros"}, "kernel_initializer": {"config": {"scale": 1.0, "seed": null, "distribution": "uniform", "mode": "fan_avg"}, "class_name": "VarianceScaling"}, "filters": 128, "kernel_regularizer": null, "bias_constraint": null, "activity_regularizer": null, "trainable": true, "bias_regularizer": null, "kernel_constraint": null}, "class_name": "Conv3D"}, {"inbound_nodes": [[["conv3d_16", 0, 0, {}]]], "name": "batch_normalization_16", "config": {"epsilon": 0.001, "momentum": 0.99, "axis": 1, "center": true, "moving_variance_initializer": {"config": {}, "class_name": "Ones"}, "gamma_regularizer": null, "beta_initializer": {"config": {}, "class_name": "Zeros"}, "moving_mean_initializer": {"config": {}, "class_name": "Zeros"}, "name": "batch_normalization_16", "gamma_constraint": null, "beta_constraint": null, "beta_regularizer": null, "trainable": true, "scale": true, "gamma_initializer": {"config": {}, "class_name": "Ones"}}, "class_name": "BatchNormalization"}, {"inbound_nodes": [[["batch_normalization_16", 0, 0, {}]]], "name": "leaky_re_lu_16", "config": {"trainable": true, "name": "leaky_re_lu_16", "alpha": 0.30000001192092896}, "class_name": "LeakyReLU"}, {"inbound_nodes": [[["add_4", 0, 0, {}], ["leaky_re_lu_16", 0, 0, {}]]], "name": "concatenate_1", "config": {"name": "concatenate_1", "trainable": true, "axis": 1}, "class_name": "Concatenate"}, {"inbound_nodes": [[["concatenate_1", 0, 0, {}]]], "name": "conv3d_17", "config": {"activation": "linear", "padding": "same", "name": "conv3d_17", "kernel_size": [3, 3, 3], "dilation_rate": [1, 1, 1], "strides": [1, 1, 1], "data_format": "channels_first", "use_bias": true, "bias_initializer": {"config": {}, "class_name": "Zeros"}, "kernel_initializer": {"config": {"scale": 1.0, "seed": null, "distribution": "uniform", "mode": "fan_avg"}, "class_name": "VarianceScaling"}, "filters": 128, "kernel_regularizer": null, "bias_constraint": null, "activity_regularizer": null, "trainable": true, "bias_regularizer": null, "kernel_constraint": null}, "class_name": "Conv3D"}, {"inbound_nodes": [[["conv3d_17", 0, 0, {}]]], "name": "batch_normalization_17", "config": {"epsilon": 0.001, "momentum": 0.99, "axis": 1, "center": true, "moving_variance_initializer": {"config": {}, "class_name": "Ones"}, "gamma_regularizer": null, "beta_initializer": {"config": {}, "class_name": "Zeros"}, "moving_mean_initializer": {"config": {}, "class_name": "Zeros"}, "name": "batch_normalization_17", "gamma_constraint": null, "beta_constraint": null, "beta_regularizer": null, "trainable": true, "scale": true, "gamma_initializer": {"config": {}, "class_name": "Ones"}}, "class_name": "BatchNormalization"}, {"inbound_nodes": [[["batch_normalization_17", 0, 0, {}]]], "name": "leaky_re_lu_17", "config": {"trainable": true, "name": "leaky_re_lu_17", "alpha": 0.30000001192092896}, "class_name": "LeakyReLU"}, {"inbound_nodes": [[["leaky_re_lu_17", 0, 0, {}]]], "name": "conv3d_18", "config": {"activation": "linear", "padding": "same", "name": "conv3d_18", "kernel_size": [1, 1, 1], "dilation_rate": [1, 1, 1], "strides": [1, 1, 1], "data_format": "channels_first", "use_bias": true, "bias_initializer": {"config": {}, "class_name": "Zeros"}, "kernel_initializer": {"config": {"scale": 1.0, "seed": null, "distribution": "uniform", "mode": "fan_avg"}, "class_name": "VarianceScaling"}, "filters": 128, "kernel_regularizer": null, "bias_constraint": null, "activity_regularizer": null, "trainable": true, "bias_regularizer": null, "kernel_constraint": null}, "class_name": "Conv3D"}, {"inbound_nodes": [[["conv3d_18", 0, 0, {}]]], "name": "batch_normalization_18", "config": {"epsilon": 0.001, "momentum": 0.99, "axis": 1, "center": true, "moving_variance_initializer": {"config": {}, "class_name": "Ones"}, "gamma_regularizer": null, "beta_initializer": {"config": {}, "class_name": "Zeros"}, "moving_mean_initializer": {"config": {}, "class_name": "Zeros"}, "name": "batch_normalization_18", "gamma_constraint": null, "beta_constraint": null, "beta_regularizer": null, "trainable": true, "scale": true, "gamma_initializer": {"config": {}, "class_name": "Ones"}}, "class_name": "BatchNormalization"}, {"inbound_nodes": [[["batch_normalization_18", 0, 0, {}]]], "name": "leaky_re_lu_18", "config": {"trainable": true, "name": "leaky_re_lu_18", "alpha": 0.30000001192092896}, "class_name": "LeakyReLU"}, {"inbound_nodes": [[["leaky_re_lu_18", 0, 0, {}]]], "name": "up_sampling3d_2", "config": {"size": [2, 2, 2], "trainable": true, "name": "up_sampling3d_2", "data_format": "channels_first"}, "class_name": "UpSampling3D"}, {"inbound_nodes": [[["up_sampling3d_2", 0, 0, {}]]], "name": "conv3d_19", "config": {"activation": "linear", "padding": "same", "name": "conv3d_19", "kernel_size": [3, 3, 3], "dilation_rate": [1, 1, 1], "strides": [1, 1, 1], "data_format": "channels_first", "use_bias": true, "bias_initializer": {"config": {}, "class_name": "Zeros"}, "kernel_initializer": {"config": {"scale": 1.0, "seed": null, "distribution": "uniform", "mode": "fan_avg"}, "class_name": "VarianceScaling"}, "filters": 64, "kernel_regularizer": null, "bias_constraint": null, "activity_regularizer": null, "trainable": true, "bias_regularizer": null, "kernel_constraint": null}, "class_name": "Conv3D"}, {"inbound_nodes": [[["conv3d_19", 0, 0, {}]]], "name": "batch_normalization_19", "config": {"epsilon": 0.001, "momentum": 0.99, "axis": 1, "center": true, "moving_variance_initializer": {"config": {}, "class_name": "Ones"}, "gamma_regularizer": null, "beta_initializer": {"config": {}, "class_name": "Zeros"}, "moving_mean_initializer": {"config": {}, "class_name": "Zeros"}, "name": "batch_normalization_19", "gamma_constraint": null, "beta_constraint": null, "beta_regularizer": null, "trainable": true, "scale": true, "gamma_initializer": {"config": {}, "class_name": "Ones"}}, "class_name": "BatchNormalization"}, {"inbound_nodes": [[["batch_normalization_19", 0, 0, {}]]], "name": "leaky_re_lu_19", "config": {"trainable": true, "name": "leaky_re_lu_19", "alpha": 0.30000001192092896}, "class_name": "LeakyReLU"}, {"inbound_nodes": [[["add_3", 0, 0, {}], ["leaky_re_lu_19", 0, 0, {}]]], "name": "concatenate_2", "config": {"name": "concatenate_2", "trainable": true, "axis": 1}, "class_name": "Concatenate"}, {"inbound_nodes": [[["concatenate_2", 0, 0, {}]]], "name": "conv3d_20", "config": {"activation": "linear", "padding": "same", "name": "conv3d_20", "kernel_size": [3, 3, 3], "dilation_rate": [1, 1, 1], "strides": [1, 1, 1], "data_format": "channels_first", "use_bias": true, "bias_initializer": {"config": {}, "class_name": "Zeros"}, "kernel_initializer": {"config": {"scale": 1.0, "seed": null, "distribution": "uniform", "mode": "fan_avg"}, "class_name": "VarianceScaling"}, "filters": 64, "kernel_regularizer": null, "bias_constraint": null, "activity_regularizer": null, "trainable": true, "bias_regularizer": null, "kernel_constraint": null}, "class_name": "Conv3D"}, {"inbound_nodes": [[["conv3d_20", 0, 0, {}]]], "name": "batch_normalization_20", "config": {"epsilon": 0.001, "momentum": 0.99, "axis": 1, "center": true, "moving_variance_initializer": {"config": {}, "class_name": "Ones"}, "gamma_regularizer": null, "beta_initializer": {"config": {}, "class_name": "Zeros"}, "moving_mean_initializer": {"config": {}, "class_name": "Zeros"}, "name": "batch_normalization_20", "gamma_constraint": null, "beta_constraint": null, "beta_regularizer": null, "trainable": true, "scale": true, "gamma_initializer": {"config": {}, "class_name": "Ones"}}, "class_name": "BatchNormalization"}, {"inbound_nodes": [[["batch_normalization_20", 0, 0, {}]]], "name": "leaky_re_lu_20", "config": {"trainable": true, "name": "leaky_re_lu_20", "alpha": 0.30000001192092896}, "class_name": "LeakyReLU"}, {"inbound_nodes": [[["leaky_re_lu_20", 0, 0, {}]]], "name": "conv3d_21", "config": {"activation": "linear", "padding": "same", "name": "conv3d_21", "kernel_size": [1, 1, 1], "dilation_rate": [1, 1, 1], "strides": [1, 1, 1], "data_format": "channels_first", "use_bias": true, "bias_initializer": {"config": {}, "class_name": "Zeros"}, "kernel_initializer": {"config": {"scale": 1.0, "seed": null, "distribution": "uniform", "mode": "fan_avg"}, "class_name": "VarianceScaling"}, "filters": 64, "kernel_regularizer": null, "bias_constraint": null, "activity_regularizer": null, "trainable": true, "bias_regularizer": null, "kernel_constraint": null}, "class_name": "Conv3D"}, {"inbound_nodes": [[["conv3d_21", 0, 0, {}]]], "name": "batch_normalization_21", "config": {"epsilon": 0.001, "momentum": 0.99, "axis": 1, "center": true, "moving_variance_initializer": {"config": {}, "class_name": "Ones"}, "gamma_regularizer": null, "beta_initializer": {"config": {}, "class_name": "Zeros"}, "moving_mean_initializer": {"config": {}, "class_name": "Zeros"}, "name": "batch_normalization_21", "gamma_constraint": null, "beta_constraint": null, "beta_regularizer": null, "trainable": true, "scale": true, "gamma_initializer": {"config": {}, "class_name": "Ones"}}, "class_name": "BatchNormalization"}, {"inbound_nodes": [[["batch_normalization_21", 0, 0, {}]]], "name": "leaky_re_lu_21", "config": {"trainable": true, "name": "leaky_re_lu_21", "alpha": 0.30000001192092896}, "class_name": "LeakyReLU"}, {"inbound_nodes": [[["leaky_re_lu_21", 0, 0, {}]]], "name": "up_sampling3d_3", "config": {"size": [2, 2, 2], "trainable": true, "name": "up_sampling3d_3", "data_format": "channels_first"}, "class_name": "UpSampling3D"}, {"inbound_nodes": [[["up_sampling3d_3", 0, 0, {}]]], "name": "conv3d_23", "config": {"activation": "linear", "padding": "same", "name": "conv3d_23", "kernel_size": [3, 3, 3], "dilation_rate": [1, 1, 1], "strides": [1, 1, 1], "data_format": "channels_first", "use_bias": true, "bias_initializer": {"config": {}, "class_name": "Zeros"}, "kernel_initializer": {"config": {"scale": 1.0, "seed": null, "distribution": "uniform", "mode": "fan_avg"}, "class_name": "VarianceScaling"}, "filters": 32, "kernel_regularizer": null, "bias_constraint": null, "activity_regularizer": null, "trainable": true, "bias_regularizer": null, "kernel_constraint": null}, "class_name": "Conv3D"}, {"inbound_nodes": [[["conv3d_23", 0, 0, {}]]], "name": "batch_normalization_22", "config": {"epsilon": 0.001, "momentum": 0.99, "axis": 1, "center": true, "moving_variance_initializer": {"config": {}, "class_name": "Ones"}, "gamma_regularizer": null, "beta_initializer": {"config": {}, "class_name": "Zeros"}, "moving_mean_initializer": {"config": {}, "class_name": "Zeros"}, "name": "batch_normalization_22", "gamma_constraint": null, "beta_constraint": null, "beta_regularizer": null, "trainable": true, "scale": true, "gamma_initializer": {"config": {}, "class_name": "Ones"}}, "class_name": "BatchNormalization"}, {"inbound_nodes": [[["batch_normalization_22", 0, 0, {}]]], "name": "leaky_re_lu_22", "config": {"trainable": true, "name": "leaky_re_lu_22", "alpha": 0.30000001192092896}, "class_name": "LeakyReLU"}, {"inbound_nodes": [[["add_2", 0, 0, {}], ["leaky_re_lu_22", 0, 0, {}]]], "name": "concatenate_3", "config": {"name": "concatenate_3", "trainable": true, "axis": 1}, "class_name": "Concatenate"}, {"inbound_nodes": [[["concatenate_3", 0, 0, {}]]], "name": "conv3d_24", "config": {"activation": "linear", "padding": "same", "name": "conv3d_24", "kernel_size": [3, 3, 3], "dilation_rate": [1, 1, 1], "strides": [1, 1, 1], "data_format": "channels_first", "use_bias": true, "bias_initializer": {"config": {}, "class_name": "Zeros"}, "kernel_initializer": {"config": {"scale": 1.0, "seed": null, "distribution": "uniform", "mode": "fan_avg"}, "class_name": "VarianceScaling"}, "filters": 32, "kernel_regularizer": null, "bias_constraint": null, "activity_regularizer": null, "trainable": true, "bias_regularizer": null, "kernel_constraint": null}, "class_name": "Conv3D"}, {"inbound_nodes": [[["conv3d_24", 0, 0, {}]]], "name": "batch_normalization_23", "config": {"epsilon": 0.001, "momentum": 0.99, "axis": 1, "center": true, "moving_variance_initializer": {"config": {}, "class_name": "Ones"}, "gamma_regularizer": null, "beta_initializer": {"config": {}, "class_name": "Zeros"}, "moving_mean_initializer": {"config": {}, "class_name": "Zeros"}, "name": "batch_normalization_23", "gamma_constraint": null, "beta_constraint": null, "beta_regularizer": null, "trainable": true, "scale": true, "gamma_initializer": {"config": {}, "class_name": "Ones"}}, "class_name": "BatchNormalization"}, {"inbound_nodes": [[["batch_normalization_23", 0, 0, {}]]], "name": "leaky_re_lu_23", "config": {"trainable": true, "name": "leaky_re_lu_23", "alpha": 0.30000001192092896}, "class_name": "LeakyReLU"}, {"inbound_nodes": [[["leaky_re_lu_23", 0, 0, {}]]], "name": "conv3d_25", "config": {"activation": "linear", "padding": "same", "name": "conv3d_25", "kernel_size": [1, 1, 1], "dilation_rate": [1, 1, 1], "strides": [1, 1, 1], "data_format": "channels_first", "use_bias": true, "bias_initializer": {"config": {}, "class_name": "Zeros"}, "kernel_initializer": {"config": {"scale": 1.0, "seed": null, "distribution": "uniform", "mode": "fan_avg"}, "class_name": "VarianceScaling"}, "filters": 32, "kernel_regularizer": null, "bias_constraint": null, "activity_regularizer": null, "trainable": true, "bias_regularizer": null, "kernel_constraint": null}, "class_name": "Conv3D"}, {"inbound_nodes": [[["conv3d_25", 0, 0, {}]]], "name": "batch_normalization_24", "config": {"epsilon": 0.001, "momentum": 0.99, "axis": 1, "center": true, "moving_variance_initializer": {"config": {}, "class_name": "Ones"}, "gamma_regularizer": null, "beta_initializer": {"config": {}, "class_name": "Zeros"}, "moving_mean_initializer": {"config": {}, "class_name": "Zeros"}, "name": "batch_normalization_24", "gamma_constraint": null, "beta_constraint": null, "beta_regularizer": null, "trainable": true, "scale": true, "gamma_initializer": {"config": {}, "class_name": "Ones"}}, "class_name": "BatchNormalization"}, {"inbound_nodes": [[["batch_normalization_24", 0, 0, {}]]], "name": "leaky_re_lu_24", "config": {"trainable": true, "name": "leaky_re_lu_24", "alpha": 0.30000001192092896}, "class_name": "LeakyReLU"}, {"inbound_nodes": [[["leaky_re_lu_24", 0, 0, {}]]], "name": "up_sampling3d_4", "config": {"size": [2, 2, 2], "trainable": true, "name": "up_sampling3d_4", "data_format": "channels_first"}, "class_name": "UpSampling3D"}, {"inbound_nodes": [[["up_sampling3d_4", 0, 0, {}]]], "name": "conv3d_27", "config": {"activation": "linear", "padding": "same", "name": "conv3d_27", "kernel_size": [3, 3, 3], "dilation_rate": [1, 1, 1], "strides": [1, 1, 1], "data_format": "channels_first", "use_bias": true, "bias_initializer": {"config": {}, "class_name": "Zeros"}, "kernel_initializer": {"config": {"scale": 1.0, "seed": null, "distribution": "uniform", "mode": "fan_avg"}, "class_name": "VarianceScaling"}, "filters": 16, "kernel_regularizer": null, "bias_constraint": null, "activity_regularizer": null, "trainable": true, "bias_regularizer": null, "kernel_constraint": null}, "class_name": "Conv3D"}, {"inbound_nodes": [[["conv3d_27", 0, 0, {}]]], "name": "batch_normalization_25", "config": {"epsilon": 0.001, "momentum": 0.99, "axis": 1, "center": true, "moving_variance_initializer": {"config": {}, "class_name": "Ones"}, "gamma_regularizer": null, "beta_initializer": {"config": {}, "class_name": "Zeros"}, "moving_mean_initializer": {"config": {}, "class_name": "Zeros"}, "name": "batch_normalization_25", "gamma_constraint": null, "beta_constraint": null, "beta_regularizer": null, "trainable": true, "scale": true, "gamma_initializer": {"config": {}, "class_name": "Ones"}}, "class_name": "BatchNormalization"}, {"inbound_nodes": [[["batch_normalization_25", 0, 0, {}]]], "name": "leaky_re_lu_25", "config": {"trainable": true, "name": "leaky_re_lu_25", "alpha": 0.30000001192092896}, "class_name": "LeakyReLU"}, {"inbound_nodes": [[["add_1", 0, 0, {}], ["leaky_re_lu_25", 0, 0, {}]]], "name": "concatenate_4", "config": {"name": "concatenate_4", "trainable": true, "axis": 1}, "class_name": "Concatenate"}, {"inbound_nodes": [[["concatenate_4", 0, 0, {}]]], "name": "conv3d_28", "config": {"activation": "linear", "padding": "same", "name": "conv3d_28", "kernel_size": [3, 3, 3], "dilation_rate": [1, 1, 1], "strides": [1, 1, 1], "data_format": "channels_first", "use_bias": true, "bias_initializer": {"config": {}, "class_name": "Zeros"}, "kernel_initializer": {"config": {"scale": 1.0, "seed": null, "distribution": "uniform", "mode": "fan_avg"}, "class_name": "VarianceScaling"}, "filters": 16, "kernel_regularizer": null, "bias_constraint": null, "activity_regularizer": null, "trainable": true, "bias_regularizer": null, "kernel_constraint": null}, "class_name": "Conv3D"}, {"inbound_nodes": [[["conv3d_28", 0, 0, {}]]], "name": "batch_normalization_26", "config": {"epsilon": 0.001, "momentum": 0.99, "axis": 1, "center": true, "moving_variance_initializer": {"config": {}, "class_name": "Ones"}, "gamma_regularizer": null, "beta_initializer": {"config": {}, "class_name": "Zeros"}, "moving_mean_initializer": {"config": {}, "class_name": "Zeros"}, "name": "batch_normalization_26", "gamma_constraint": null, "beta_constraint": null, "beta_regularizer": null, "trainable": true, "scale": true, "gamma_initializer": {"config": {}, "class_name": "Ones"}}, "class_name": "BatchNormalization"}, {"inbound_nodes": [[["batch_normalization_26", 0, 0, {}]]], "name": "leaky_re_lu_26", "config": {"trainable": true, "name": "leaky_re_lu_26", "alpha": 0.30000001192092896}, "class_name": "LeakyReLU"}, {"inbound_nodes": [[["leaky_re_lu_21", 0, 0, {}]]], "name": "conv3d_22", "config": {"activation": "linear", "padding": "valid", "name": "conv3d_22", "kernel_size": [1, 1, 1], "dilation_rate": [1, 1, 1], "strides": [1, 1, 1], "data_format": "channels_first", "use_bias": true, "bias_initializer": {"config": {}, "class_name": "Zeros"}, "kernel_initializer": {"config": {"scale": 1.0, "seed": null, "distribution": "uniform", "mode": "fan_avg"}, "class_name": "VarianceScaling"}, "filters": 2, "kernel_regularizer": null, "bias_constraint": null, "activity_regularizer": null, "trainable": true, "bias_regularizer": null, "kernel_constraint": null}, "class_name": "Conv3D"}, {"inbound_nodes": [[["leaky_re_lu_26", 0, 0, {}]]], "name": "conv3d_29", "config": {"activation": "linear", "padding": "same", "name": "conv3d_29", "kernel_size": [1, 1, 1], "dilation_rate": [1, 1, 1], "strides": [1, 1, 1], "data_format": "channels_first", "use_bias": true, "bias_initializer": {"config": {}, "class_name": "Zeros"}, "kernel_initializer": {"config": {"scale": 1.0, "seed": null, "distribution": "uniform", "mode": "fan_avg"}, "class_name": "VarianceScaling"}, "filters": 16, "kernel_regularizer": null, "bias_constraint": null, "activity_regularizer": null, "trainable": true, "bias_regularizer": null, "kernel_constraint": null}, "class_name": "Conv3D"}, {"inbound_nodes": [[["conv3d_22", 0, 0, {}]]], "name": "up_sampling3d_5", "config": {"size": [2, 2, 2], "trainable": true, "name": "up_sampling3d_5", "data_format": "channels_first"}, "class_name": "UpSampling3D"}, {"inbound_nodes": [[["leaky_re_lu_24", 0, 0, {}]]], "name": "conv3d_26", "config": {"activation": "linear", "padding": "valid", "name": "conv3d_26", "kernel_size": [1, 1, 1], "dilation_rate": [1, 1, 1], "strides": [1, 1, 1], "data_format": "channels_first", "use_bias": true, "bias_initializer": {"config": {}, "class_name": "Zeros"}, "kernel_initializer": {"config": {"scale": 1.0, "seed": null, "distribution": "uniform", "mode": "fan_avg"}, "class_name": "VarianceScaling"}, "filters": 2, "kernel_regularizer": null, "bias_constraint": null, "activity_regularizer": null, "trainable": true, "bias_regularizer": null, "kernel_constraint": null}, "class_name": "Conv3D"}, {"inbound_nodes": [[["conv3d_29", 0, 0, {}]]], "name": "batch_normalization_27", "config": {"epsilon": 0.001, "momentum": 0.99, "axis": 1, "center": true, "moving_variance_initializer": {"config": {}, "class_name": "Ones"}, "gamma_regularizer": null, "beta_initializer": {"config": {}, "class_name": "Zeros"}, "moving_mean_initializer": {"config": {}, "class_name": "Zeros"}, "name": "batch_normalization_27", "gamma_constraint": null, "beta_constraint": null, "beta_regularizer": null, "trainable": true, "scale": true, "gamma_initializer": {"config": {}, "class_name": "Ones"}}, "class_name": "BatchNormalization"}, {"inbound_nodes": [[["up_sampling3d_5", 0, 0, {}], ["conv3d_26", 0, 0, {}]]], "name": "add_6", "config": {"trainable": true, "name": "add_6"}, "class_name": "Add"}, {"inbound_nodes": [[["batch_normalization_27", 0, 0, {}]]], "name": "leaky_re_lu_27", "config": {"trainable": true, "name": "leaky_re_lu_27", "alpha": 0.30000001192092896}, "class_name": "LeakyReLU"}, {"inbound_nodes": [[["add_6", 0, 0, {}]]], "name": "up_sampling3d_6", "config": {"size": [2, 2, 2], "trainable": true, "name": "up_sampling3d_6", "data_format": "channels_first"}, "class_name": "UpSampling3D"}, {"inbound_nodes": [[["leaky_re_lu_27", 0, 0, {}]]], "name": "conv3d_30", "config": {"activation": "linear", "padding": "valid", "name": "conv3d_30", "kernel_size": [1, 1, 1], "dilation_rate": [1, 1, 1], "strides": [1, 1, 1], "data_format": "channels_first", "use_bias": true, "bias_initializer": {"config": {}, "class_name": "Zeros"}, "kernel_initializer": {"config": {"scale": 1.0, "seed": null, "distribution": "uniform", "mode": "fan_avg"}, "class_name": "VarianceScaling"}, "filters": 2, "kernel_regularizer": null, "bias_constraint": null, "activity_regularizer": null, "trainable": true, "bias_regularizer": null, "kernel_constraint": null}, "class_name": "Conv3D"}, {"inbound_nodes": [[["up_sampling3d_6", 0, 0, {}], ["conv3d_30", 0, 0, {}]]], "name": "add_7", "config": {"trainable": true, "name": "add_7"}, "class_name": "Add"}, {"inbound_nodes": [[["add_7", 0, 0, {}]]], "name": "activation_1", "config": {"activation": "sigmoid", "trainable": true, "name": "activation_1"}, "class_name": "Activation"}], "name": "model_1", "input_layers": [["input_1", 0, 0]], "output_layers": [["activation_1", 0, 0]]}, "backend": "tensorflow", "keras_version": "2.1.5", "class_name": "Model"}