{"keras_version": "2.1.5", "config": {"name": "model_1", "layers": [{"inbound_nodes": [], "config": {"batch_input_shape": [null, 1, 80, 80, 32], "dtype": "float32", "name": "input_1", "sparse": false}, "class_name": "InputLayer", "name": "input_1"}, {"inbound_nodes": [[["input_1", 0, 0, {}]]], "config": {"bias_initializer": {"config": {}, "class_name": "Zeros"}, "activity_regularizer": null, "data_format": "channels_first", "bias_regularizer": null, "bias_constraint": null, "dilation_rate": [1, 1, 1], "trainable": true, "kernel_constraint": null, "strides": [1, 1, 1], "padding": "same", "activation": "linear", "filters": 16, "use_bias": true, "kernel_size": [3, 3, 3], "kernel_initializer": {"config": {"seed": null, "mode": "fan_avg", "scale": 1.0, "distribution": "uniform"}, "class_name": "VarianceScaling"}, "kernel_regularizer": null, "name": "conv3d_1"}, "class_name": "Conv3D", "name": "conv3d_1"}, {"inbound_nodes": [[["conv3d_1", 0, 0, {}]]], "config": {"axis": 1, "epsilon": 0.001, "momentum": 0.99, "beta_initializer": {"config": {}, "class_name": "Zeros"}, "gamma_constraint": null, "beta_constraint": null, "beta_regularizer": null, "gamma_initializer": {"config": {}, "class_name": "Ones"}, "moving_variance_initializer": {"config": {}, "class_name": "Ones"}, "center": true, "gamma_regularizer": null, "trainable": true, "moving_mean_initializer": {"config": {}, "class_name": "Zeros"}, "scale": true, "name": "batch_normalization_1"}, "class_name": "BatchNormalization", "name": "batch_normalization_1"}, {"inbound_nodes": [[["batch_normalization_1", 0, 0, {}]]], "config": {"alpha": 0.30000001192092896, "trainable": true, "name": "leaky_re_lu_1"}, "class_name": "LeakyReLU", "name": "leaky_re_lu_1"}, {"inbound_nodes": [[["leaky_re_lu_1", 0, 0, {}]]], "config": {"bias_initializer": {"config": {}, "class_name": "Zeros"}, "activity_regularizer": null, "data_format": "channels_first", "bias_regularizer": null, "bias_constraint": null, "dilation_rate": [1, 1, 1], "trainable": true, "kernel_constraint": null, "strides": [1, 1, 1], "padding": "same", "activation": "linear", "filters": 16, "use_bias": true, "kernel_size": [3, 3, 3], "kernel_initializer": {"config": {"seed": null, "mode": "fan_avg", "scale": 1.0, "distribution": "uniform"}, "class_name": "VarianceScaling"}, "kernel_regularizer": null, "name": "conv3d_2"}, "class_name": "Conv3D", "name": "conv3d_2"}, {"inbound_nodes": [[["conv3d_2", 0, 0, {}]]], "config": {"axis": 1, "epsilon": 0.001, "momentum": 0.99, "beta_initializer": {"config": {}, "class_name": "Zeros"}, "gamma_constraint": null, "beta_constraint": null, "beta_regularizer": null, "gamma_initializer": {"config": {}, "class_name": "Ones"}, "moving_variance_initializer": {"config": {}, "class_name": "Ones"}, "center": true, "gamma_regularizer": null, "trainable": true, "moving_mean_initializer": {"config": {}, "class_name": "Zeros"}, "scale": true, "name": "batch_normalization_2"}, "class_name": "BatchNormalization", "name": "batch_normalization_2"}, {"inbound_nodes": [[["batch_normalization_2", 0, 0, {}]]], "config": {"alpha": 0.30000001192092896, "trainable": true, "name": "leaky_re_lu_2"}, "class_name": "LeakyReLU", "name": "leaky_re_lu_2"}, {"inbound_nodes": [[["leaky_re_lu_2", 0, 0, {}]]], "config": {"trainable": true, "seed": null, "name": "spatial_dropout3d_1", "rate": 0.3, "noise_shape": null}, "class_name": "SpatialDropout3D", "name": "spatial_dropout3d_1"}, {"inbound_nodes": [[["spatial_dropout3d_1", 0, 0, {}]]], "config": {"bias_initializer": {"config": {}, "class_name": "Zeros"}, "activity_regularizer": null, "data_format": "channels_first", "bias_regularizer": null, "bias_constraint": null, "dilation_rate": [1, 1, 1], "trainable": true, "kernel_constraint": null, "strides": [1, 1, 1], "padding": "same", "activation": "linear", "filters": 16, "use_bias": true, "kernel_size": [3, 3, 3], "kernel_initializer": {"config": {"seed": null, "mode": "fan_avg", "scale": 1.0, "distribution": "uniform"}, "class_name": "VarianceScaling"}, "kernel_regularizer": null, "name": "conv3d_3"}, "class_name": "Conv3D", "name": "conv3d_3"}, {"inbound_nodes": [[["conv3d_3", 0, 0, {}]]], "config": {"axis": 1, "epsilon": 0.001, "momentum": 0.99, "beta_initializer": {"config": {}, "class_name": "Zeros"}, "gamma_constraint": null, "beta_constraint": null, "beta_regularizer": null, "gamma_initializer": {"config": {}, "class_name": "Ones"}, "moving_variance_initializer": {"config": {}, "class_name": "Ones"}, "center": true, "gamma_regularizer": null, "trainable": true, "moving_mean_initializer": {"config": {}, "class_name": "Zeros"}, "scale": true, "name": "batch_normalization_3"}, "class_name": "BatchNormalization", "name": "batch_normalization_3"}, {"inbound_nodes": [[["batch_normalization_3", 0, 0, {}]]], "config": {"alpha": 0.30000001192092896, "trainable": true, "name": "leaky_re_lu_3"}, "class_name": "LeakyReLU", "name": "leaky_re_lu_3"}, {"inbound_nodes": [[["leaky_re_lu_1", 0, 0, {}], ["leaky_re_lu_3", 0, 0, {}]]], "config": {"name": "add_1", "trainable": true}, "class_name": "Add", "name": "add_1"}, {"inbound_nodes": [[["add_1", 0, 0, {}]]], "config": {"bias_initializer": {"config": {}, "class_name": "Zeros"}, "activity_regularizer": null, "data_format": "channels_first", "bias_regularizer": null, "bias_constraint": null, "dilation_rate": [1, 1, 1], "trainable": true, "kernel_constraint": null, "strides": [2, 2, 2], "padding": "same", "activation": "linear", "filters": 32, "use_bias": true, "kernel_size": [3, 3, 3], "kernel_initializer": {"config": {"seed": null, "mode": "fan_avg", "scale": 1.0, "distribution": "uniform"}, "class_name": "VarianceScaling"}, "kernel_regularizer": null, "name": "conv3d_4"}, "class_name": "Conv3D", "name": "conv3d_4"}, {"inbound_nodes": [[["conv3d_4", 0, 0, {}]]], "config": {"axis": 1, "epsilon": 0.001, "momentum": 0.99, "beta_initializer": {"config": {}, "class_name": "Zeros"}, "gamma_constraint": null, "beta_constraint": null, "beta_regularizer": null, "gamma_initializer": {"config": {}, "class_name": "Ones"}, "moving_variance_initializer": {"config": {}, "class_name": "Ones"}, "center": true, "gamma_regularizer": null, "trainable": true, "moving_mean_initializer": {"config": {}, "class_name": "Zeros"}, "scale": true, "name": "batch_normalization_4"}, "class_name": "BatchNormalization", "name": "batch_normalization_4"}, {"inbound_nodes": [[["batch_normalization_4", 0, 0, {}]]], "config": {"alpha": 0.30000001192092896, "trainable": true, "name": "leaky_re_lu_4"}, "class_name": "LeakyReLU", "name": "leaky_re_lu_4"}, {"inbound_nodes": [[["leaky_re_lu_4", 0, 0, {}]]], "config": {"bias_initializer": {"config": {}, "class_name": "Zeros"}, "activity_regularizer": null, "data_format": "channels_first", "bias_regularizer": null, "bias_constraint": null, "dilation_rate": [1, 1, 1], "trainable": true, "kernel_constraint": null, "strides": [1, 1, 1], "padding": "same", "activation": "linear", "filters": 32, "use_bias": true, "kernel_size": [3, 3, 3], "kernel_initializer": {"config": {"seed": null, "mode": "fan_avg", "scale": 1.0, "distribution": "uniform"}, "class_name": "VarianceScaling"}, "kernel_regularizer": null, "name": "conv3d_5"}, "class_name": "Conv3D", "name": "conv3d_5"}, {"inbound_nodes": [[["conv3d_5", 0, 0, {}]]], "config": {"axis": 1, "epsilon": 0.001, "momentum": 0.99, "beta_initializer": {"config": {}, "class_name": "Zeros"}, "gamma_constraint": null, "beta_constraint": null, "beta_regularizer": null, "gamma_initializer": {"config": {}, "class_name": "Ones"}, "moving_variance_initializer": {"config": {}, "class_name": "Ones"}, "center": true, "gamma_regularizer": null, "trainable": true, "moving_mean_initializer": {"config": {}, "class_name": "Zeros"}, "scale": true, "name": "batch_normalization_5"}, "class_name": "BatchNormalization", "name": "batch_normalization_5"}, {"inbound_nodes": [[["batch_normalization_5", 0, 0, {}]]], "config": {"alpha": 0.30000001192092896, "trainable": true, "name": "leaky_re_lu_5"}, "class_name": "LeakyReLU", "name": "leaky_re_lu_5"}, {"inbound_nodes": [[["leaky_re_lu_5", 0, 0, {}]]], "config": {"trainable": true, "seed": null, "name": "spatial_dropout3d_2", "rate": 0.3, "noise_shape": null}, "class_name": "SpatialDropout3D", "name": "spatial_dropout3d_2"}, {"inbound_nodes": [[["spatial_dropout3d_2", 0, 0, {}]]], "config": {"bias_initializer": {"config": {}, "class_name": "Zeros"}, "activity_regularizer": null, "data_format": "channels_first", "bias_regularizer": null, "bias_constraint": null, "dilation_rate": [1, 1, 1], "trainable": true, "kernel_constraint": null, "strides": [1, 1, 1], "padding": "same", "activation": "linear", "filters": 32, "use_bias": true, "kernel_size": [3, 3, 3], "kernel_initializer": {"config": {"seed": null, "mode": "fan_avg", "scale": 1.0, "distribution": "uniform"}, "class_name": "VarianceScaling"}, "kernel_regularizer": null, "name": "conv3d_6"}, "class_name": "Conv3D", "name": "conv3d_6"}, {"inbound_nodes": [[["conv3d_6", 0, 0, {}]]], "config": {"axis": 1, "epsilon": 0.001, "momentum": 0.99, "beta_initializer": {"config": {}, "class_name": "Zeros"}, "gamma_constraint": null, "beta_constraint": null, "beta_regularizer": null, "gamma_initializer": {"config": {}, "class_name": "Ones"}, "moving_variance_initializer": {"config": {}, "class_name": "Ones"}, "center": true, "gamma_regularizer": null, "trainable": true, "moving_mean_initializer": {"config": {}, "class_name": "Zeros"}, "scale": true, "name": "batch_normalization_6"}, "class_name": "BatchNormalization", "name": "batch_normalization_6"}, {"inbound_nodes": [[["batch_normalization_6", 0, 0, {}]]], "config": {"alpha": 0.30000001192092896, "trainable": true, "name": "leaky_re_lu_6"}, "class_name": "LeakyReLU", "name": "leaky_re_lu_6"}, {"inbound_nodes": [[["leaky_re_lu_4", 0, 0, {}], ["leaky_re_lu_6", 0, 0, {}]]], "config": {"name": "add_2", "trainable": true}, "class_name": "Add", "name": "add_2"}, {"inbound_nodes": [[["add_2", 0, 0, {}]]], "config": {"bias_initializer": {"config": {}, "class_name": "Zeros"}, "activity_regularizer": null, "data_format": "channels_first", "bias_regularizer": null, "bias_constraint": null, "dilation_rate": [1, 1, 1], "trainable": true, "kernel_constraint": null, "strides": [2, 2, 2], "padding": "same", "activation": "linear", "filters": 64, "use_bias": true, "kernel_size": [3, 3, 3], "kernel_initializer": {"config": {"seed": null, "mode": "fan_avg", "scale": 1.0, "distribution": "uniform"}, "class_name": "VarianceScaling"}, "kernel_regularizer": null, "name": "conv3d_7"}, "class_name": "Conv3D", "name": "conv3d_7"}, {"inbound_nodes": [[["conv3d_7", 0, 0, {}]]], "config": {"axis": 1, "epsilon": 0.001, "momentum": 0.99, "beta_initializer": {"config": {}, "class_name": "Zeros"}, "gamma_constraint": null, "beta_constraint": null, "beta_regularizer": null, "gamma_initializer": {"config": {}, "class_name": "Ones"}, "moving_variance_initializer": {"config": {}, "class_name": "Ones"}, "center": true, "gamma_regularizer": null, "trainable": true, "moving_mean_initializer": {"config": {}, "class_name": "Zeros"}, "scale": true, "name": "batch_normalization_7"}, "class_name": "BatchNormalization", "name": "batch_normalization_7"}, {"inbound_nodes": [[["batch_normalization_7", 0, 0, {}]]], "config": {"alpha": 0.30000001192092896, "trainable": true, "name": "leaky_re_lu_7"}, "class_name": "LeakyReLU", "name": "leaky_re_lu_7"}, {"inbound_nodes": [[["leaky_re_lu_7", 0, 0, {}]]], "config": {"bias_initializer": {"config": {}, "class_name": "Zeros"}, "activity_regularizer": null, "data_format": "channels_first", "bias_regularizer": null, "bias_constraint": null, "dilation_rate": [1, 1, 1], "trainable": true, "kernel_constraint": null, "strides": [1, 1, 1], "padding": "same", "activation": "linear", "filters": 64, "use_bias": true, "kernel_size": [3, 3, 3], "kernel_initializer": {"config": {"seed": null, "mode": "fan_avg", "scale": 1.0, "distribution": "uniform"}, "class_name": "VarianceScaling"}, "kernel_regularizer": null, "name": "conv3d_8"}, "class_name": "Conv3D", "name": "conv3d_8"}, {"inbound_nodes": [[["conv3d_8", 0, 0, {}]]], "config": {"axis": 1, "epsilon": 0.001, "momentum": 0.99, "beta_initializer": {"config": {}, "class_name": "Zeros"}, "gamma_constraint": null, "beta_constraint": null, "beta_regularizer": null, "gamma_initializer": {"config": {}, "class_name": "Ones"}, "moving_variance_initializer": {"config": {}, "class_name": "Ones"}, "center": true, "gamma_regularizer": null, "trainable": true, "moving_mean_initializer": {"config": {}, "class_name": "Zeros"}, "scale": true, "name": "batch_normalization_8"}, "class_name": "BatchNormalization", "name": "batch_normalization_8"}, {"inbound_nodes": [[["batch_normalization_8", 0, 0, {}]]], "config": {"alpha": 0.30000001192092896, "trainable": true, "name": "leaky_re_lu_8"}, "class_name": "LeakyReLU", "name": "leaky_re_lu_8"}, {"inbound_nodes": [[["leaky_re_lu_8", 0, 0, {}]]], "config": {"trainable": true, "seed": null, "name": "spatial_dropout3d_3", "rate": 0.3, "noise_shape": null}, "class_name": "SpatialDropout3D", "name": "spatial_dropout3d_3"}, {"inbound_nodes": [[["spatial_dropout3d_3", 0, 0, {}]]], "config": {"bias_initializer": {"config": {}, "class_name": "Zeros"}, "activity_regularizer": null, "data_format": "channels_first", "bias_regularizer": null, "bias_constraint": null, "dilation_rate": [1, 1, 1], "trainable": true, "kernel_constraint": null, "strides": [1, 1, 1], "padding": "same", "activation": "linear", "filters": 64, "use_bias": true, "kernel_size": [3, 3, 3], "kernel_initializer": {"config": {"seed": null, "mode": "fan_avg", "scale": 1.0, "distribution": "uniform"}, "class_name": "VarianceScaling"}, "kernel_regularizer": null, "name": "conv3d_9"}, "class_name": "Conv3D", "name": "conv3d_9"}, {"inbound_nodes": [[["conv3d_9", 0, 0, {}]]], "config": {"axis": 1, "epsilon": 0.001, "momentum": 0.99, "beta_initializer": {"config": {}, "class_name": "Zeros"}, "gamma_constraint": null, "beta_constraint": null, "beta_regularizer": null, "gamma_initializer": {"config": {}, "class_name": "Ones"}, "moving_variance_initializer": {"config": {}, "class_name": "Ones"}, "center": true, "gamma_regularizer": null, "trainable": true, "moving_mean_initializer": {"config": {}, "class_name": "Zeros"}, "scale": true, "name": "batch_normalization_9"}, "class_name": "BatchNormalization", "name": "batch_normalization_9"}, {"inbound_nodes": [[["batch_normalization_9", 0, 0, {}]]], "config": {"alpha": 0.30000001192092896, "trainable": true, "name": "leaky_re_lu_9"}, "class_name": "LeakyReLU", "name": "leaky_re_lu_9"}, {"inbound_nodes": [[["leaky_re_lu_7", 0, 0, {}], ["leaky_re_lu_9", 0, 0, {}]]], "config": {"name": "add_3", "trainable": true}, "class_name": "Add", "name": "add_3"}, {"inbound_nodes": [[["add_3", 0, 0, {}]]], "config": {"bias_initializer": {"config": {}, "class_name": "Zeros"}, "activity_regularizer": null, "data_format": "channels_first", "bias_regularizer": null, "bias_constraint": null, "dilation_rate": [1, 1, 1], "trainable": true, "kernel_constraint": null, "strides": [2, 2, 2], "padding": "same", "activation": "linear", "filters": 128, "use_bias": true, "kernel_size": [3, 3, 3], "kernel_initializer": {"config": {"seed": null, "mode": "fan_avg", "scale": 1.0, "distribution": "uniform"}, "class_name": "VarianceScaling"}, "kernel_regularizer": null, "name": "conv3d_10"}, "class_name": "Conv3D", "name": "conv3d_10"}, {"inbound_nodes": [[["conv3d_10", 0, 0, {}]]], "config": {"axis": 1, "epsilon": 0.001, "momentum": 0.99, "beta_initializer": {"config": {}, "class_name": "Zeros"}, "gamma_constraint": null, "beta_constraint": null, "beta_regularizer": null, "gamma_initializer": {"config": {}, "class_name": "Ones"}, "moving_variance_initializer": {"config": {}, "class_name": "Ones"}, "center": true, "gamma_regularizer": null, "trainable": true, "moving_mean_initializer": {"config": {}, "class_name": "Zeros"}, "scale": true, "name": "batch_normalization_10"}, "class_name": "BatchNormalization", "name": "batch_normalization_10"}, {"inbound_nodes": [[["batch_normalization_10", 0, 0, {}]]], "config": {"alpha": 0.30000001192092896, "trainable": true, "name": "leaky_re_lu_10"}, "class_name": "LeakyReLU", "name": "leaky_re_lu_10"}, {"inbound_nodes": [[["leaky_re_lu_10", 0, 0, {}]]], "config": {"bias_initializer": {"config": {}, "class_name": "Zeros"}, "activity_regularizer": null, "data_format": "channels_first", "bias_regularizer": null, "bias_constraint": null, "dilation_rate": [1, 1, 1], "trainable": true, "kernel_constraint": null, "strides": [1, 1, 1], "padding": "same", "activation": "linear", "filters": 128, "use_bias": true, "kernel_size": [3, 3, 3], "kernel_initializer": {"config": {"seed": null, "mode": "fan_avg", "scale": 1.0, "distribution": "uniform"}, "class_name": "VarianceScaling"}, "kernel_regularizer": null, "name": "conv3d_11"}, "class_name": "Conv3D", "name": "conv3d_11"}, {"inbound_nodes": [[["conv3d_11", 0, 0, {}]]], "config": {"axis": 1, "epsilon": 0.001, "momentum": 0.99, "beta_initializer": {"config": {}, "class_name": "Zeros"}, "gamma_constraint": null, "beta_constraint": null, "beta_regularizer": null, "gamma_initializer": {"config": {}, "class_name": "Ones"}, "moving_variance_initializer": {"config": {}, "class_name": "Ones"}, "center": true, "gamma_regularizer": null, "trainable": true, "moving_mean_initializer": {"config": {}, "class_name": "Zeros"}, "scale": true, "name": "batch_normalization_11"}, "class_name": "BatchNormalization", "name": "batch_normalization_11"}, {"inbound_nodes": [[["batch_normalization_11", 0, 0, {}]]], "config": {"alpha": 0.30000001192092896, "trainable": true, "name": "leaky_re_lu_11"}, "class_name": "LeakyReLU", "name": "leaky_re_lu_11"}, {"inbound_nodes": [[["leaky_re_lu_11", 0, 0, {}]]], "config": {"trainable": true, "seed": null, "name": "spatial_dropout3d_4", "rate": 0.3, "noise_shape": null}, "class_name": "SpatialDropout3D", "name": "spatial_dropout3d_4"}, {"inbound_nodes": [[["spatial_dropout3d_4", 0, 0, {}]]], "config": {"bias_initializer": {"config": {}, "class_name": "Zeros"}, "activity_regularizer": null, "data_format": "channels_first", "bias_regularizer": null, "bias_constraint": null, "dilation_rate": [1, 1, 1], "trainable": true, "kernel_constraint": null, "strides": [1, 1, 1], "padding": "same", "activation": "linear", "filters": 128, "use_bias": true, "kernel_size": [3, 3, 3], "kernel_initializer": {"config": {"seed": null, "mode": "fan_avg", "scale": 1.0, "distribution": "uniform"}, "class_name": "VarianceScaling"}, "kernel_regularizer": null, "name": "conv3d_12"}, "class_name": "Conv3D", "name": "conv3d_12"}, {"inbound_nodes": [[["conv3d_12", 0, 0, {}]]], "config": {"axis": 1, "epsilon": 0.001, "momentum": 0.99, "beta_initializer": {"config": {}, "class_name": "Zeros"}, "gamma_constraint": null, "beta_constraint": null, "beta_regularizer": null, "gamma_initializer": {"config": {}, "class_name": "Ones"}, "moving_variance_initializer": {"config": {}, "class_name": "Ones"}, "center": true, "gamma_regularizer": null, "trainable": true, "moving_mean_initializer": {"config": {}, "class_name": "Zeros"}, "scale": true, "name": "batch_normalization_12"}, "class_name": "BatchNormalization", "name": "batch_normalization_12"}, {"inbound_nodes": [[["batch_normalization_12", 0, 0, {}]]], "config": {"alpha": 0.30000001192092896, "trainable": true, "name": "leaky_re_lu_12"}, "class_name": "LeakyReLU", "name": "leaky_re_lu_12"}, {"inbound_nodes": [[["leaky_re_lu_10", 0, 0, {}], ["leaky_re_lu_12", 0, 0, {}]]], "config": {"name": "add_4", "trainable": true}, "class_name": "Add", "name": "add_4"}, {"inbound_nodes": [[["add_4", 0, 0, {}]]], "config": {"bias_initializer": {"config": {}, "class_name": "Zeros"}, "activity_regularizer": null, "data_format": "channels_first", "bias_regularizer": null, "bias_constraint": null, "dilation_rate": [1, 1, 1], "trainable": true, "kernel_constraint": null, "strides": [2, 2, 2], "padding": "same", "activation": "linear", "filters": 256, "use_bias": true, "kernel_size": [3, 3, 3], "kernel_initializer": {"config": {"seed": null, "mode": "fan_avg", "scale": 1.0, "distribution": "uniform"}, "class_name": "VarianceScaling"}, "kernel_regularizer": null, "name": "conv3d_13"}, "class_name": "Conv3D", "name": "conv3d_13"}, {"inbound_nodes": [[["conv3d_13", 0, 0, {}]]], "config": {"axis": 1, "epsilon": 0.001, "momentum": 0.99, "beta_initializer": {"config": {}, "class_name": "Zeros"}, "gamma_constraint": null, "beta_constraint": null, "beta_regularizer": null, "gamma_initializer": {"config": {}, "class_name": "Ones"}, "moving_variance_initializer": {"config": {}, "class_name": "Ones"}, "center": true, "gamma_regularizer": null, "trainable": true, "moving_mean_initializer": {"config": {}, "class_name": "Zeros"}, "scale": true, "name": "batch_normalization_13"}, "class_name": "BatchNormalization", "name": "batch_normalization_13"}, {"inbound_nodes": [[["batch_normalization_13", 0, 0, {}]]], "config": {"alpha": 0.30000001192092896, "trainable": true, "name": "leaky_re_lu_13"}, "class_name": "LeakyReLU", "name": "leaky_re_lu_13"}, {"inbound_nodes": [[["leaky_re_lu_13", 0, 0, {}]]], "config": {"bias_initializer": {"config": {}, "class_name": "Zeros"}, "activity_regularizer": null, "data_format": "channels_first", "bias_regularizer": null, "bias_constraint": null, "dilation_rate": [1, 1, 1], "trainable": true, "kernel_constraint": null, "strides": [1, 1, 1], "padding": "same", "activation": "linear", "filters": 256, "use_bias": true, "kernel_size": [3, 3, 3], "kernel_initializer": {"config": {"seed": null, "mode": "fan_avg", "scale": 1.0, "distribution": "uniform"}, "class_name": "VarianceScaling"}, "kernel_regularizer": null, "name": "conv3d_14"}, "class_name": "Conv3D", "name": "conv3d_14"}, {"inbound_nodes": [[["conv3d_14", 0, 0, {}]]], "config": {"axis": 1, "epsilon": 0.001, "momentum": 0.99, "beta_initializer": {"config": {}, "class_name": "Zeros"}, "gamma_constraint": null, "beta_constraint": null, "beta_regularizer": null, "gamma_initializer": {"config": {}, "class_name": "Ones"}, "moving_variance_initializer": {"config": {}, "class_name": "Ones"}, "center": true, "gamma_regularizer": null, "trainable": true, "moving_mean_initializer": {"config": {}, "class_name": "Zeros"}, "scale": true, "name": "batch_normalization_14"}, "class_name": "BatchNormalization", "name": "batch_normalization_14"}, {"inbound_nodes": [[["batch_normalization_14", 0, 0, {}]]], "config": {"alpha": 0.30000001192092896, "trainable": true, "name": "leaky_re_lu_14"}, "class_name": "LeakyReLU", "name": "leaky_re_lu_14"}, {"inbound_nodes": [[["leaky_re_lu_14", 0, 0, {}]]], "config": {"trainable": true, "seed": null, "name": "spatial_dropout3d_5", "rate": 0.3, "noise_shape": null}, "class_name": "SpatialDropout3D", "name": "spatial_dropout3d_5"}, {"inbound_nodes": [[["spatial_dropout3d_5", 0, 0, {}]]], "config": {"bias_initializer": {"config": {}, "class_name": "Zeros"}, "activity_regularizer": null, "data_format": "channels_first", "bias_regularizer": null, "bias_constraint": null, "dilation_rate": [1, 1, 1], "trainable": true, "kernel_constraint": null, "strides": [1, 1, 1], "padding": "same", "activation": "linear", "filters": 256, "use_bias": true, "kernel_size": [3, 3, 3], "kernel_initializer": {"config": {"seed": null, "mode": "fan_avg", "scale": 1.0, "distribution": "uniform"}, "class_name": "VarianceScaling"}, "kernel_regularizer": null, "name": "conv3d_15"}, "class_name": "Conv3D", "name": "conv3d_15"}, {"inbound_nodes": [[["conv3d_15", 0, 0, {}]]], "config": {"axis": 1, "epsilon": 0.001, "momentum": 0.99, "beta_initializer": {"config": {}, "class_name": "Zeros"}, "gamma_constraint": null, "beta_constraint": null, "beta_regularizer": null, "gamma_initializer": {"config": {}, "class_name": "Ones"}, "moving_variance_initializer": {"config": {}, "class_name": "Ones"}, "center": true, "gamma_regularizer": null, "trainable": true, "moving_mean_initializer": {"config": {}, "class_name": "Zeros"}, "scale": true, "name": "batch_normalization_15"}, "class_name": "BatchNormalization", "name": "batch_normalization_15"}, {"inbound_nodes": [[["batch_normalization_15", 0, 0, {}]]], "config": {"alpha": 0.30000001192092896, "trainable": true, "name": "leaky_re_lu_15"}, "class_name": "LeakyReLU", "name": "leaky_re_lu_15"}, {"inbound_nodes": [[["leaky_re_lu_13", 0, 0, {}], ["leaky_re_lu_15", 0, 0, {}]]], "config": {"name": "add_5", "trainable": true}, "class_name": "Add", "name": "add_5"}, {"inbound_nodes": [[["add_5", 0, 0, {}]]], "config": {"trainable": true, "name": "up_sampling3d_1", "data_format": "channels_first", "size": [2, 2, 2]}, "class_name": "UpSampling3D", "name": "up_sampling3d_1"}, {"inbound_nodes": [[["up_sampling3d_1", 0, 0, {}]]], "config": {"bias_initializer": {"config": {}, "class_name": "Zeros"}, "activity_regularizer": null, "data_format": "channels_first", "bias_regularizer": null, "bias_constraint": null, "dilation_rate": [1, 1, 1], "trainable": true, "kernel_constraint": null, "strides": [1, 1, 1], "padding": "same", "activation": "linear", "filters": 128, "use_bias": true, "kernel_size": [3, 3, 3], "kernel_initializer": {"config": {"seed": null, "mode": "fan_avg", "scale": 1.0, "distribution": "uniform"}, "class_name": "VarianceScaling"}, "kernel_regularizer": null, "name": "conv3d_16"}, "class_name": "Conv3D", "name": "conv3d_16"}, {"inbound_nodes": [[["conv3d_16", 0, 0, {}]]], "config": {"axis": 1, "epsilon": 0.001, "momentum": 0.99, "beta_initializer": {"config": {}, "class_name": "Zeros"}, "gamma_constraint": null, "beta_constraint": null, "beta_regularizer": null, "gamma_initializer": {"config": {}, "class_name": "Ones"}, "moving_variance_initializer": {"config": {}, "class_name": "Ones"}, "center": true, "gamma_regularizer": null, "trainable": true, "moving_mean_initializer": {"config": {}, "class_name": "Zeros"}, "scale": true, "name": "batch_normalization_16"}, "class_name": "BatchNormalization", "name": "batch_normalization_16"}, {"inbound_nodes": [[["batch_normalization_16", 0, 0, {}]]], "config": {"alpha": 0.30000001192092896, "trainable": true, "name": "leaky_re_lu_16"}, "class_name": "LeakyReLU", "name": "leaky_re_lu_16"}, {"inbound_nodes": [[["add_4", 0, 0, {}], ["leaky_re_lu_16", 0, 0, {}]]], "config": {"axis": 1, "trainable": true, "name": "concatenate_1"}, "class_name": "Concatenate", "name": "concatenate_1"}, {"inbound_nodes": [[["concatenate_1", 0, 0, {}]]], "config": {"bias_initializer": {"config": {}, "class_name": "Zeros"}, "activity_regularizer": null, "data_format": "channels_first", "bias_regularizer": null, "bias_constraint": null, "dilation_rate": [1, 1, 1], "trainable": true, "kernel_constraint": null, "strides": [1, 1, 1], "padding": "same", "activation": "linear", "filters": 128, "use_bias": true, "kernel_size": [3, 3, 3], "kernel_initializer": {"config": {"seed": null, "mode": "fan_avg", "scale": 1.0, "distribution": "uniform"}, "class_name": "VarianceScaling"}, "kernel_regularizer": null, "name": "conv3d_17"}, "class_name": "Conv3D", "name": "conv3d_17"}, {"inbound_nodes": [[["conv3d_17", 0, 0, {}]]], "config": {"axis": 1, "epsilon": 0.001, "momentum": 0.99, "beta_initializer": {"config": {}, "class_name": "Zeros"}, "gamma_constraint": null, "beta_constraint": null, "beta_regularizer": null, "gamma_initializer": {"config": {}, "class_name": "Ones"}, "moving_variance_initializer": {"config": {}, "class_name": "Ones"}, "center": true, "gamma_regularizer": null, "trainable": true, "moving_mean_initializer": {"config": {}, "class_name": "Zeros"}, "scale": true, "name": "batch_normalization_17"}, "class_name": "BatchNormalization", "name": "batch_normalization_17"}, {"inbound_nodes": [[["batch_normalization_17", 0, 0, {}]]], "config": {"alpha": 0.30000001192092896, "trainable": true, "name": "leaky_re_lu_17"}, "class_name": "LeakyReLU", "name": "leaky_re_lu_17"}, {"inbound_nodes": [[["leaky_re_lu_17", 0, 0, {}]]], "config": {"bias_initializer": {"config": {}, "class_name": "Zeros"}, "activity_regularizer": null, "data_format": "channels_first", "bias_regularizer": null, "bias_constraint": null, "dilation_rate": [1, 1, 1], "trainable": true, "kernel_constraint": null, "strides": [1, 1, 1], "padding": "same", "activation": "linear", "filters": 128, "use_bias": true, "kernel_size": [1, 1, 1], "kernel_initializer": {"config": {"seed": null, "mode": "fan_avg", "scale": 1.0, "distribution": "uniform"}, "class_name": "VarianceScaling"}, "kernel_regularizer": null, "name": "conv3d_18"}, "class_name": "Conv3D", "name": "conv3d_18"}, {"inbound_nodes": [[["conv3d_18", 0, 0, {}]]], "config": {"axis": 1, "epsilon": 0.001, "momentum": 0.99, "beta_initializer": {"config": {}, "class_name": "Zeros"}, "gamma_constraint": null, "beta_constraint": null, "beta_regularizer": null, "gamma_initializer": {"config": {}, "class_name": "Ones"}, "moving_variance_initializer": {"config": {}, "class_name": "Ones"}, "center": true, "gamma_regularizer": null, "trainable": true, "moving_mean_initializer": {"config": {}, "class_name": "Zeros"}, "scale": true, "name": "batch_normalization_18"}, "class_name": "BatchNormalization", "name": "batch_normalization_18"}, {"inbound_nodes": [[["batch_normalization_18", 0, 0, {}]]], "config": {"alpha": 0.30000001192092896, "trainable": true, "name": "leaky_re_lu_18"}, "class_name": "LeakyReLU", "name": "leaky_re_lu_18"}, {"inbound_nodes": [[["leaky_re_lu_18", 0, 0, {}]]], "config": {"trainable": true, "name": "up_sampling3d_2", "data_format": "channels_first", "size": [2, 2, 2]}, "class_name": "UpSampling3D", "name": "up_sampling3d_2"}, {"inbound_nodes": [[["up_sampling3d_2", 0, 0, {}]]], "config": {"bias_initializer": {"config": {}, "class_name": "Zeros"}, "activity_regularizer": null, "data_format": "channels_first", "bias_regularizer": null, "bias_constraint": null, "dilation_rate": [1, 1, 1], "trainable": true, "kernel_constraint": null, "strides": [1, 1, 1], "padding": "same", "activation": "linear", "filters": 64, "use_bias": true, "kernel_size": [3, 3, 3], "kernel_initializer": {"config": {"seed": null, "mode": "fan_avg", "scale": 1.0, "distribution": "uniform"}, "class_name": "VarianceScaling"}, "kernel_regularizer": null, "name": "conv3d_19"}, "class_name": "Conv3D", "name": "conv3d_19"}, {"inbound_nodes": [[["conv3d_19", 0, 0, {}]]], "config": {"axis": 1, "epsilon": 0.001, "momentum": 0.99, "beta_initializer": {"config": {}, "class_name": "Zeros"}, "gamma_constraint": null, "beta_constraint": null, "beta_regularizer": null, "gamma_initializer": {"config": {}, "class_name": "Ones"}, "moving_variance_initializer": {"config": {}, "class_name": "Ones"}, "center": true, "gamma_regularizer": null, "trainable": true, "moving_mean_initializer": {"config": {}, "class_name": "Zeros"}, "scale": true, "name": "batch_normalization_19"}, "class_name": "BatchNormalization", "name": "batch_normalization_19"}, {"inbound_nodes": [[["batch_normalization_19", 0, 0, {}]]], "config": {"alpha": 0.30000001192092896, "trainable": true, "name": "leaky_re_lu_19"}, "class_name": "LeakyReLU", "name": "leaky_re_lu_19"}, {"inbound_nodes": [[["add_3", 0, 0, {}], ["leaky_re_lu_19", 0, 0, {}]]], "config": {"axis": 1, "trainable": true, "name": "concatenate_2"}, "class_name": "Concatenate", "name": "concatenate_2"}, {"inbound_nodes": [[["concatenate_2", 0, 0, {}]]], "config": {"bias_initializer": {"config": {}, "class_name": "Zeros"}, "activity_regularizer": null, "data_format": "channels_first", "bias_regularizer": null, "bias_constraint": null, "dilation_rate": [1, 1, 1], "trainable": true, "kernel_constraint": null, "strides": [1, 1, 1], "padding": "same", "activation": "linear", "filters": 64, "use_bias": true, "kernel_size": [3, 3, 3], "kernel_initializer": {"config": {"seed": null, "mode": "fan_avg", "scale": 1.0, "distribution": "uniform"}, "class_name": "VarianceScaling"}, "kernel_regularizer": null, "name": "conv3d_20"}, "class_name": "Conv3D", "name": "conv3d_20"}, {"inbound_nodes": [[["conv3d_20", 0, 0, {}]]], "config": {"axis": 1, "epsilon": 0.001, "momentum": 0.99, "beta_initializer": {"config": {}, "class_name": "Zeros"}, "gamma_constraint": null, "beta_constraint": null, "beta_regularizer": null, "gamma_initializer": {"config": {}, "class_name": "Ones"}, "moving_variance_initializer": {"config": {}, "class_name": "Ones"}, "center": true, "gamma_regularizer": null, "trainable": true, "moving_mean_initializer": {"config": {}, "class_name": "Zeros"}, "scale": true, "name": "batch_normalization_20"}, "class_name": "BatchNormalization", "name": "batch_normalization_20"}, {"inbound_nodes": [[["batch_normalization_20", 0, 0, {}]]], "config": {"alpha": 0.30000001192092896, "trainable": true, "name": "leaky_re_lu_20"}, "class_name": "LeakyReLU", "name": "leaky_re_lu_20"}, {"inbound_nodes": [[["leaky_re_lu_20", 0, 0, {}]]], "config": {"bias_initializer": {"config": {}, "class_name": "Zeros"}, "activity_regularizer": null, "data_format": "channels_first", "bias_regularizer": null, "bias_constraint": null, "dilation_rate": [1, 1, 1], "trainable": true, "kernel_constraint": null, "strides": [1, 1, 1], "padding": "same", "activation": "linear", "filters": 64, "use_bias": true, "kernel_size": [1, 1, 1], "kernel_initializer": {"config": {"seed": null, "mode": "fan_avg", "scale": 1.0, "distribution": "uniform"}, "class_name": "VarianceScaling"}, "kernel_regularizer": null, "name": "conv3d_21"}, "class_name": "Conv3D", "name": "conv3d_21"}, {"inbound_nodes": [[["conv3d_21", 0, 0, {}]]], "config": {"axis": 1, "epsilon": 0.001, "momentum": 0.99, "beta_initializer": {"config": {}, "class_name": "Zeros"}, "gamma_constraint": null, "beta_constraint": null, "beta_regularizer": null, "gamma_initializer": {"config": {}, "class_name": "Ones"}, "moving_variance_initializer": {"config": {}, "class_name": "Ones"}, "center": true, "gamma_regularizer": null, "trainable": true, "moving_mean_initializer": {"config": {}, "class_name": "Zeros"}, "scale": true, "name": "batch_normalization_21"}, "class_name": "BatchNormalization", "name": "batch_normalization_21"}, {"inbound_nodes": [[["batch_normalization_21", 0, 0, {}]]], "config": {"alpha": 0.30000001192092896, "trainable": true, "name": "leaky_re_lu_21"}, "class_name": "LeakyReLU", "name": "leaky_re_lu_21"}, {"inbound_nodes": [[["leaky_re_lu_21", 0, 0, {}]]], "config": {"trainable": true, "name": "up_sampling3d_3", "data_format": "channels_first", "size": [2, 2, 2]}, "class_name": "UpSampling3D", "name": "up_sampling3d_3"}, {"inbound_nodes": [[["up_sampling3d_3", 0, 0, {}]]], "config": {"bias_initializer": {"config": {}, "class_name": "Zeros"}, "activity_regularizer": null, "data_format": "channels_first", "bias_regularizer": null, "bias_constraint": null, "dilation_rate": [1, 1, 1], "trainable": true, "kernel_constraint": null, "strides": [1, 1, 1], "padding": "same", "activation": "linear", "filters": 32, "use_bias": true, "kernel_size": [3, 3, 3], "kernel_initializer": {"config": {"seed": null, "mode": "fan_avg", "scale": 1.0, "distribution": "uniform"}, "class_name": "VarianceScaling"}, "kernel_regularizer": null, "name": "conv3d_23"}, "class_name": "Conv3D", "name": "conv3d_23"}, {"inbound_nodes": [[["conv3d_23", 0, 0, {}]]], "config": {"axis": 1, "epsilon": 0.001, "momentum": 0.99, "beta_initializer": {"config": {}, "class_name": "Zeros"}, "gamma_constraint": null, "beta_constraint": null, "beta_regularizer": null, "gamma_initializer": {"config": {}, "class_name": "Ones"}, "moving_variance_initializer": {"config": {}, "class_name": "Ones"}, "center": true, "gamma_regularizer": null, "trainable": true, "moving_mean_initializer": {"config": {}, "class_name": "Zeros"}, "scale": true, "name": "batch_normalization_22"}, "class_name": "BatchNormalization", "name": "batch_normalization_22"}, {"inbound_nodes": [[["batch_normalization_22", 0, 0, {}]]], "config": {"alpha": 0.30000001192092896, "trainable": true, "name": "leaky_re_lu_22"}, "class_name": "LeakyReLU", "name": "leaky_re_lu_22"}, {"inbound_nodes": [[["add_2", 0, 0, {}], ["leaky_re_lu_22", 0, 0, {}]]], "config": {"axis": 1, "trainable": true, "name": "concatenate_3"}, "class_name": "Concatenate", "name": "concatenate_3"}, {"inbound_nodes": [[["concatenate_3", 0, 0, {}]]], "config": {"bias_initializer": {"config": {}, "class_name": "Zeros"}, "activity_regularizer": null, "data_format": "channels_first", "bias_regularizer": null, "bias_constraint": null, "dilation_rate": [1, 1, 1], "trainable": true, "kernel_constraint": null, "strides": [1, 1, 1], "padding": "same", "activation": "linear", "filters": 32, "use_bias": true, "kernel_size": [3, 3, 3], "kernel_initializer": {"config": {"seed": null, "mode": "fan_avg", "scale": 1.0, "distribution": "uniform"}, "class_name": "VarianceScaling"}, "kernel_regularizer": null, "name": "conv3d_24"}, "class_name": "Conv3D", "name": "conv3d_24"}, {"inbound_nodes": [[["conv3d_24", 0, 0, {}]]], "config": {"axis": 1, "epsilon": 0.001, "momentum": 0.99, "beta_initializer": {"config": {}, "class_name": "Zeros"}, "gamma_constraint": null, "beta_constraint": null, "beta_regularizer": null, "gamma_initializer": {"config": {}, "class_name": "Ones"}, "moving_variance_initializer": {"config": {}, "class_name": "Ones"}, "center": true, "gamma_regularizer": null, "trainable": true, "moving_mean_initializer": {"config": {}, "class_name": "Zeros"}, "scale": true, "name": "batch_normalization_23"}, "class_name": "BatchNormalization", "name": "batch_normalization_23"}, {"inbound_nodes": [[["batch_normalization_23", 0, 0, {}]]], "config": {"alpha": 0.30000001192092896, "trainable": true, "name": "leaky_re_lu_23"}, "class_name": "LeakyReLU", "name": "leaky_re_lu_23"}, {"inbound_nodes": [[["leaky_re_lu_23", 0, 0, {}]]], "config": {"bias_initializer": {"config": {}, "class_name": "Zeros"}, "activity_regularizer": null, "data_format": "channels_first", "bias_regularizer": null, "bias_constraint": null, "dilation_rate": [1, 1, 1], "trainable": true, "kernel_constraint": null, "strides": [1, 1, 1], "padding": "same", "activation": "linear", "filters": 32, "use_bias": true, "kernel_size": [1, 1, 1], "kernel_initializer": {"config": {"seed": null, "mode": "fan_avg", "scale": 1.0, "distribution": "uniform"}, "class_name": "VarianceScaling"}, "kernel_regularizer": null, "name": "conv3d_25"}, "class_name": "Conv3D", "name": "conv3d_25"}, {"inbound_nodes": [[["conv3d_25", 0, 0, {}]]], "config": {"axis": 1, "epsilon": 0.001, "momentum": 0.99, "beta_initializer": {"config": {}, "class_name": "Zeros"}, "gamma_constraint": null, "beta_constraint": null, "beta_regularizer": null, "gamma_initializer": {"config": {}, "class_name": "Ones"}, "moving_variance_initializer": {"config": {}, "class_name": "Ones"}, "center": true, "gamma_regularizer": null, "trainable": true, "moving_mean_initializer": {"config": {}, "class_name": "Zeros"}, "scale": true, "name": "batch_normalization_24"}, "class_name": "BatchNormalization", "name": "batch_normalization_24"}, {"inbound_nodes": [[["batch_normalization_24", 0, 0, {}]]], "config": {"alpha": 0.30000001192092896, "trainable": true, "name": "leaky_re_lu_24"}, "class_name": "LeakyReLU", "name": "leaky_re_lu_24"}, {"inbound_nodes": [[["leaky_re_lu_24", 0, 0, {}]]], "config": {"trainable": true, "name": "up_sampling3d_4", "data_format": "channels_first", "size": [2, 2, 2]}, "class_name": "UpSampling3D", "name": "up_sampling3d_4"}, {"inbound_nodes": [[["up_sampling3d_4", 0, 0, {}]]], "config": {"bias_initializer": {"config": {}, "class_name": "Zeros"}, "activity_regularizer": null, "data_format": "channels_first", "bias_regularizer": null, "bias_constraint": null, "dilation_rate": [1, 1, 1], "trainable": true, "kernel_constraint": null, "strides": [1, 1, 1], "padding": "same", "activation": "linear", "filters": 16, "use_bias": true, "kernel_size": [3, 3, 3], "kernel_initializer": {"config": {"seed": null, "mode": "fan_avg", "scale": 1.0, "distribution": "uniform"}, "class_name": "VarianceScaling"}, "kernel_regularizer": null, "name": "conv3d_27"}, "class_name": "Conv3D", "name": "conv3d_27"}, {"inbound_nodes": [[["conv3d_27", 0, 0, {}]]], "config": {"axis": 1, "epsilon": 0.001, "momentum": 0.99, "beta_initializer": {"config": {}, "class_name": "Zeros"}, "gamma_constraint": null, "beta_constraint": null, "beta_regularizer": null, "gamma_initializer": {"config": {}, "class_name": "Ones"}, "moving_variance_initializer": {"config": {}, "class_name": "Ones"}, "center": true, "gamma_regularizer": null, "trainable": true, "moving_mean_initializer": {"config": {}, "class_name": "Zeros"}, "scale": true, "name": "batch_normalization_25"}, "class_name": "BatchNormalization", "name": "batch_normalization_25"}, {"inbound_nodes": [[["batch_normalization_25", 0, 0, {}]]], "config": {"alpha": 0.30000001192092896, "trainable": true, "name": "leaky_re_lu_25"}, "class_name": "LeakyReLU", "name": "leaky_re_lu_25"}, {"inbound_nodes": [[["add_1", 0, 0, {}], ["leaky_re_lu_25", 0, 0, {}]]], "config": {"axis": 1, "trainable": true, "name": "concatenate_4"}, "class_name": "Concatenate", "name": "concatenate_4"}, {"inbound_nodes": [[["concatenate_4", 0, 0, {}]]], "config": {"bias_initializer": {"config": {}, "class_name": "Zeros"}, "activity_regularizer": null, "data_format": "channels_first", "bias_regularizer": null, "bias_constraint": null, "dilation_rate": [1, 1, 1], "trainable": true, "kernel_constraint": null, "strides": [1, 1, 1], "padding": "same", "activation": "linear", "filters": 16, "use_bias": true, "kernel_size": [3, 3, 3], "kernel_initializer": {"config": {"seed": null, "mode": "fan_avg", "scale": 1.0, "distribution": "uniform"}, "class_name": "VarianceScaling"}, "kernel_regularizer": null, "name": "conv3d_28"}, "class_name": "Conv3D", "name": "conv3d_28"}, {"inbound_nodes": [[["conv3d_28", 0, 0, {}]]], "config": {"axis": 1, "epsilon": 0.001, "momentum": 0.99, "beta_initializer": {"config": {}, "class_name": "Zeros"}, "gamma_constraint": null, "beta_constraint": null, "beta_regularizer": null, "gamma_initializer": {"config": {}, "class_name": "Ones"}, "moving_variance_initializer": {"config": {}, "class_name": "Ones"}, "center": true, "gamma_regularizer": null, "trainable": true, "moving_mean_initializer": {"config": {}, "class_name": "Zeros"}, "scale": true, "name": "batch_normalization_26"}, "class_name": "BatchNormalization", "name": "batch_normalization_26"}, {"inbound_nodes": [[["batch_normalization_26", 0, 0, {}]]], "config": {"alpha": 0.30000001192092896, "trainable": true, "name": "leaky_re_lu_26"}, "class_name": "LeakyReLU", "name": "leaky_re_lu_26"}, {"inbound_nodes": [[["leaky_re_lu_21", 0, 0, {}]]], "config": {"bias_initializer": {"config": {}, "class_name": "Zeros"}, "activity_regularizer": null, "data_format": "channels_first", "bias_regularizer": null, "bias_constraint": null, "dilation_rate": [1, 1, 1], "trainable": true, "kernel_constraint": null, "strides": [1, 1, 1], "padding": "valid", "activation": "linear", "filters": 4, "use_bias": true, "kernel_size": [1, 1, 1], "kernel_initializer": {"config": {"seed": null, "mode": "fan_avg", "scale": 1.0, "distribution": "uniform"}, "class_name": "VarianceScaling"}, "kernel_regularizer": null, "name": "conv3d_22"}, "class_name": "Conv3D", "name": "conv3d_22"}, {"inbound_nodes": [[["leaky_re_lu_26", 0, 0, {}]]], "config": {"bias_initializer": {"config": {}, "class_name": "Zeros"}, "activity_regularizer": null, "data_format": "channels_first", "bias_regularizer": null, "bias_constraint": null, "dilation_rate": [1, 1, 1], "trainable": true, "kernel_constraint": null, "strides": [1, 1, 1], "padding": "same", "activation": "linear", "filters": 16, "use_bias": true, "kernel_size": [1, 1, 1], "kernel_initializer": {"config": {"seed": null, "mode": "fan_avg", "scale": 1.0, "distribution": "uniform"}, "class_name": "VarianceScaling"}, "kernel_regularizer": null, "name": "conv3d_29"}, "class_name": "Conv3D", "name": "conv3d_29"}, {"inbound_nodes": [[["conv3d_22", 0, 0, {}]]], "config": {"trainable": true, "name": "up_sampling3d_5", "data_format": "channels_first", "size": [2, 2, 2]}, "class_name": "UpSampling3D", "name": "up_sampling3d_5"}, {"inbound_nodes": [[["leaky_re_lu_24", 0, 0, {}]]], "config": {"bias_initializer": {"config": {}, "class_name": "Zeros"}, "activity_regularizer": null, "data_format": "channels_first", "bias_regularizer": null, "bias_constraint": null, "dilation_rate": [1, 1, 1], "trainable": true, "kernel_constraint": null, "strides": [1, 1, 1], "padding": "valid", "activation": "linear", "filters": 4, "use_bias": true, "kernel_size": [1, 1, 1], "kernel_initializer": {"config": {"seed": null, "mode": "fan_avg", "scale": 1.0, "distribution": "uniform"}, "class_name": "VarianceScaling"}, "kernel_regularizer": null, "name": "conv3d_26"}, "class_name": "Conv3D", "name": "conv3d_26"}, {"inbound_nodes": [[["conv3d_29", 0, 0, {}]]], "config": {"axis": 1, "epsilon": 0.001, "momentum": 0.99, "beta_initializer": {"config": {}, "class_name": "Zeros"}, "gamma_constraint": null, "beta_constraint": null, "beta_regularizer": null, "gamma_initializer": {"config": {}, "class_name": "Ones"}, "moving_variance_initializer": {"config": {}, "class_name": "Ones"}, "center": true, "gamma_regularizer": null, "trainable": true, "moving_mean_initializer": {"config": {}, "class_name": "Zeros"}, "scale": true, "name": "batch_normalization_27"}, "class_name": "BatchNormalization", "name": "batch_normalization_27"}, {"inbound_nodes": [[["up_sampling3d_5", 0, 0, {}], ["conv3d_26", 0, 0, {}]]], "config": {"name": "add_6", "trainable": true}, "class_name": "Add", "name": "add_6"}, {"inbound_nodes": [[["batch_normalization_27", 0, 0, {}]]], "config": {"alpha": 0.30000001192092896, "trainable": true, "name": "leaky_re_lu_27"}, "class_name": "LeakyReLU", "name": "leaky_re_lu_27"}, {"inbound_nodes": [[["add_6", 0, 0, {}]]], "config": {"trainable": true, "name": "up_sampling3d_6", "data_format": "channels_first", "size": [2, 2, 2]}, "class_name": "UpSampling3D", "name": "up_sampling3d_6"}, {"inbound_nodes": [[["leaky_re_lu_27", 0, 0, {}]]], "config": {"bias_initializer": {"config": {}, "class_name": "Zeros"}, "activity_regularizer": null, "data_format": "channels_first", "bias_regularizer": null, "bias_constraint": null, "dilation_rate": [1, 1, 1], "trainable": true, "kernel_constraint": null, "strides": [1, 1, 1], "padding": "valid", "activation": "linear", "filters": 4, "use_bias": true, "kernel_size": [1, 1, 1], "kernel_initializer": {"config": {"seed": null, "mode": "fan_avg", "scale": 1.0, "distribution": "uniform"}, "class_name": "VarianceScaling"}, "kernel_regularizer": null, "name": "conv3d_30"}, "class_name": "Conv3D", "name": "conv3d_30"}, {"inbound_nodes": [[["up_sampling3d_6", 0, 0, {}], ["conv3d_30", 0, 0, {}]]], "config": {"name": "add_7", "trainable": true}, "class_name": "Add", "name": "add_7"}, {"inbound_nodes": [[["add_7", 0, 0, {}]]], "config": {"activation": "sigmoid", "trainable": true, "name": "activation_1"}, "class_name": "Activation", "name": "activation_1"}], "input_layers": [["input_1", 0, 0]], "output_layers": [["activation_1", 0, 0]]}, "backend": "tensorflow", "class_name": "Model"}