{"config": {"layers": [{"config": {"sparse": false, "batch_input_shape": [null, 1, 64, 64, 64], "name": "input_1", "dtype": "float32"}, "inbound_nodes": [], "class_name": "InputLayer", "name": "input_1"}, {"config": {"kernel_regularizer": null, "activity_regularizer": null, "bias_regularizer": null, "filters": 16, "kernel_constraint": null, "activation": "linear", "padding": "same", "strides": [1, 1, 1], "name": "conv3d_1", "bias_initializer": {"config": {}, "class_name": "Zeros"}, "trainable": true, "dilation_rate": [1, 1, 1], "kernel_size": [3, 3, 3], "data_format": "channels_first", "use_bias": true, "kernel_initializer": {"config": {"mode": "fan_avg", "distribution": "uniform", "seed": null, "scale": 1.0}, "class_name": "VarianceScaling"}, "bias_constraint": null}, "inbound_nodes": [[["input_1", 0, 0, {}]]], "class_name": "Conv3D", "name": "conv3d_1"}, {"config": {"beta_constraint": null, "gamma_regularizer": null, "scale": true, "gamma_constraint": null, "axis": 1, "beta_initializer": {"config": {}, "class_name": "Zeros"}, "center": true, "moving_mean_initializer": {"config": {}, "class_name": "Zeros"}, "momentum": 0.99, "name": "batch_normalization_1", "epsilon": 0.001, "gamma_initializer": {"config": {}, "class_name": "Ones"}, "trainable": true, "moving_variance_initializer": {"config": {}, "class_name": "Ones"}, "beta_regularizer": null}, "inbound_nodes": [[["conv3d_1", 0, 0, {}]]], "class_name": "BatchNormalization", "name": "batch_normalization_1"}, {"config": {"trainable": true, "name": "leaky_re_lu_1", "alpha": 0.30000001192092896}, "inbound_nodes": [[["batch_normalization_1", 0, 0, {}]]], "class_name": "LeakyReLU", "name": "leaky_re_lu_1"}, {"config": {"kernel_regularizer": null, "activity_regularizer": null, "bias_regularizer": null, "filters": 16, "kernel_constraint": null, "activation": "linear", "padding": "same", "strides": [1, 1, 1], "name": "conv3d_2", "bias_initializer": {"config": {}, "class_name": "Zeros"}, "trainable": true, "dilation_rate": [1, 1, 1], "kernel_size": [3, 3, 3], "data_format": "channels_first", "use_bias": true, "kernel_initializer": {"config": {"mode": "fan_avg", "distribution": "uniform", "seed": null, "scale": 1.0}, "class_name": "VarianceScaling"}, "bias_constraint": null}, "inbound_nodes": [[["leaky_re_lu_1", 0, 0, {}]]], "class_name": "Conv3D", "name": "conv3d_2"}, {"config": {"beta_constraint": null, "gamma_regularizer": null, "scale": true, "gamma_constraint": null, "axis": 1, "beta_initializer": {"config": {}, "class_name": "Zeros"}, "center": true, "moving_mean_initializer": {"config": {}, "class_name": "Zeros"}, "momentum": 0.99, "name": "batch_normalization_2", "epsilon": 0.001, "gamma_initializer": {"config": {}, "class_name": "Ones"}, "trainable": true, "moving_variance_initializer": {"config": {}, "class_name": "Ones"}, "beta_regularizer": null}, "inbound_nodes": [[["conv3d_2", 0, 0, {}]]], "class_name": "BatchNormalization", "name": "batch_normalization_2"}, {"config": {"trainable": true, "name": "leaky_re_lu_2", "alpha": 0.30000001192092896}, "inbound_nodes": [[["batch_normalization_2", 0, 0, {}]]], "class_name": "LeakyReLU", "name": "leaky_re_lu_2"}, {"config": {"noise_shape": null, "trainable": true, "name": "spatial_dropout3d_1", "seed": null, "rate": 0.3}, "inbound_nodes": [[["leaky_re_lu_2", 0, 0, {}]]], "class_name": "SpatialDropout3D", "name": "spatial_dropout3d_1"}, {"config": {"kernel_regularizer": null, "activity_regularizer": null, "bias_regularizer": null, "filters": 16, "kernel_constraint": null, "activation": "linear", "padding": "same", "strides": [1, 1, 1], "name": "conv3d_3", "bias_initializer": {"config": {}, "class_name": "Zeros"}, "trainable": true, "dilation_rate": [1, 1, 1], "kernel_size": [3, 3, 3], "data_format": "channels_first", "use_bias": true, "kernel_initializer": {"config": {"mode": "fan_avg", "distribution": "uniform", "seed": null, "scale": 1.0}, "class_name": "VarianceScaling"}, "bias_constraint": null}, "inbound_nodes": [[["spatial_dropout3d_1", 0, 0, {}]]], "class_name": "Conv3D", "name": "conv3d_3"}, {"config": {"beta_constraint": null, "gamma_regularizer": null, "scale": true, "gamma_constraint": null, "axis": 1, "beta_initializer": {"config": {}, "class_name": "Zeros"}, "center": true, "moving_mean_initializer": {"config": {}, "class_name": "Zeros"}, "momentum": 0.99, "name": "batch_normalization_3", "epsilon": 0.001, "gamma_initializer": {"config": {}, "class_name": "Ones"}, "trainable": true, "moving_variance_initializer": {"config": {}, "class_name": "Ones"}, "beta_regularizer": null}, "inbound_nodes": [[["conv3d_3", 0, 0, {}]]], "class_name": "BatchNormalization", "name": "batch_normalization_3"}, {"config": {"trainable": true, "name": "leaky_re_lu_3", "alpha": 0.30000001192092896}, "inbound_nodes": [[["batch_normalization_3", 0, 0, {}]]], "class_name": "LeakyReLU", "name": "leaky_re_lu_3"}, {"config": {"trainable": true, "name": "add_1"}, "inbound_nodes": [[["leaky_re_lu_1", 0, 0, {}], ["leaky_re_lu_3", 0, 0, {}]]], "class_name": "Add", "name": "add_1"}, {"config": {"kernel_regularizer": null, "activity_regularizer": null, "bias_regularizer": null, "filters": 32, "kernel_constraint": null, "activation": "linear", "padding": "same", "strides": [2, 2, 2], "name": "conv3d_4", "bias_initializer": {"config": {}, "class_name": "Zeros"}, "trainable": true, "dilation_rate": [1, 1, 1], "kernel_size": [3, 3, 3], "data_format": "channels_first", "use_bias": true, "kernel_initializer": {"config": {"mode": "fan_avg", "distribution": "uniform", "seed": null, "scale": 1.0}, "class_name": "VarianceScaling"}, "bias_constraint": null}, "inbound_nodes": [[["add_1", 0, 0, {}]]], "class_name": "Conv3D", "name": "conv3d_4"}, {"config": {"beta_constraint": null, "gamma_regularizer": null, "scale": true, "gamma_constraint": null, "axis": 1, "beta_initializer": {"config": {}, "class_name": "Zeros"}, "center": true, "moving_mean_initializer": {"config": {}, "class_name": "Zeros"}, "momentum": 0.99, "name": "batch_normalization_4", "epsilon": 0.001, "gamma_initializer": {"config": {}, "class_name": "Ones"}, "trainable": true, "moving_variance_initializer": {"config": {}, "class_name": "Ones"}, "beta_regularizer": null}, "inbound_nodes": [[["conv3d_4", 0, 0, {}]]], "class_name": "BatchNormalization", "name": "batch_normalization_4"}, {"config": {"trainable": true, "name": "leaky_re_lu_4", "alpha": 0.30000001192092896}, "inbound_nodes": [[["batch_normalization_4", 0, 0, {}]]], "class_name": "LeakyReLU", "name": "leaky_re_lu_4"}, {"config": {"kernel_regularizer": null, "activity_regularizer": null, "bias_regularizer": null, "filters": 32, "kernel_constraint": null, "activation": "linear", "padding": "same", "strides": [1, 1, 1], "name": "conv3d_5", "bias_initializer": {"config": {}, "class_name": "Zeros"}, "trainable": true, "dilation_rate": [1, 1, 1], "kernel_size": [3, 3, 3], "data_format": "channels_first", "use_bias": true, "kernel_initializer": {"config": {"mode": "fan_avg", "distribution": "uniform", "seed": null, "scale": 1.0}, "class_name": "VarianceScaling"}, "bias_constraint": null}, "inbound_nodes": [[["leaky_re_lu_4", 0, 0, {}]]], "class_name": "Conv3D", "name": "conv3d_5"}, {"config": {"beta_constraint": null, "gamma_regularizer": null, "scale": true, "gamma_constraint": null, "axis": 1, "beta_initializer": {"config": {}, "class_name": "Zeros"}, "center": true, "moving_mean_initializer": {"config": {}, "class_name": "Zeros"}, "momentum": 0.99, "name": "batch_normalization_5", "epsilon": 0.001, "gamma_initializer": {"config": {}, "class_name": "Ones"}, "trainable": true, "moving_variance_initializer": {"config": {}, "class_name": "Ones"}, "beta_regularizer": null}, "inbound_nodes": [[["conv3d_5", 0, 0, {}]]], "class_name": "BatchNormalization", "name": "batch_normalization_5"}, {"config": {"trainable": true, "name": "leaky_re_lu_5", "alpha": 0.30000001192092896}, "inbound_nodes": [[["batch_normalization_5", 0, 0, {}]]], "class_name": "LeakyReLU", "name": "leaky_re_lu_5"}, {"config": {"noise_shape": null, "trainable": true, "name": "spatial_dropout3d_2", "seed": null, "rate": 0.3}, "inbound_nodes": [[["leaky_re_lu_5", 0, 0, {}]]], "class_name": "SpatialDropout3D", "name": "spatial_dropout3d_2"}, {"config": {"kernel_regularizer": null, "activity_regularizer": null, "bias_regularizer": null, "filters": 32, "kernel_constraint": null, "activation": "linear", "padding": "same", "strides": [1, 1, 1], "name": "conv3d_6", "bias_initializer": {"config": {}, "class_name": "Zeros"}, "trainable": true, "dilation_rate": [1, 1, 1], "kernel_size": [3, 3, 3], "data_format": "channels_first", "use_bias": true, "kernel_initializer": {"config": {"mode": "fan_avg", "distribution": "uniform", "seed": null, "scale": 1.0}, "class_name": "VarianceScaling"}, "bias_constraint": null}, "inbound_nodes": [[["spatial_dropout3d_2", 0, 0, {}]]], "class_name": "Conv3D", "name": "conv3d_6"}, {"config": {"beta_constraint": null, "gamma_regularizer": null, "scale": true, "gamma_constraint": null, "axis": 1, "beta_initializer": {"config": {}, "class_name": "Zeros"}, "center": true, "moving_mean_initializer": {"config": {}, "class_name": "Zeros"}, "momentum": 0.99, "name": "batch_normalization_6", "epsilon": 0.001, "gamma_initializer": {"config": {}, "class_name": "Ones"}, "trainable": true, "moving_variance_initializer": {"config": {}, "class_name": "Ones"}, "beta_regularizer": null}, "inbound_nodes": [[["conv3d_6", 0, 0, {}]]], "class_name": "BatchNormalization", "name": "batch_normalization_6"}, {"config": {"trainable": true, "name": "leaky_re_lu_6", "alpha": 0.30000001192092896}, "inbound_nodes": [[["batch_normalization_6", 0, 0, {}]]], "class_name": "LeakyReLU", "name": "leaky_re_lu_6"}, {"config": {"trainable": true, "name": "add_2"}, "inbound_nodes": [[["leaky_re_lu_4", 0, 0, {}], ["leaky_re_lu_6", 0, 0, {}]]], "class_name": "Add", "name": "add_2"}, {"config": {"kernel_regularizer": null, "activity_regularizer": null, "bias_regularizer": null, "filters": 64, "kernel_constraint": null, "activation": "linear", "padding": "same", "strides": [2, 2, 2], "name": "conv3d_7", "bias_initializer": {"config": {}, "class_name": "Zeros"}, "trainable": true, "dilation_rate": [1, 1, 1], "kernel_size": [3, 3, 3], "data_format": "channels_first", "use_bias": true, "kernel_initializer": {"config": {"mode": "fan_avg", "distribution": "uniform", "seed": null, "scale": 1.0}, "class_name": "VarianceScaling"}, "bias_constraint": null}, "inbound_nodes": [[["add_2", 0, 0, {}]]], "class_name": "Conv3D", "name": "conv3d_7"}, {"config": {"beta_constraint": null, "gamma_regularizer": null, "scale": true, "gamma_constraint": null, "axis": 1, "beta_initializer": {"config": {}, "class_name": "Zeros"}, "center": true, "moving_mean_initializer": {"config": {}, "class_name": "Zeros"}, "momentum": 0.99, "name": "batch_normalization_7", "epsilon": 0.001, "gamma_initializer": {"config": {}, "class_name": "Ones"}, "trainable": true, "moving_variance_initializer": {"config": {}, "class_name": "Ones"}, "beta_regularizer": null}, "inbound_nodes": [[["conv3d_7", 0, 0, {}]]], "class_name": "BatchNormalization", "name": "batch_normalization_7"}, {"config": {"trainable": true, "name": "leaky_re_lu_7", "alpha": 0.30000001192092896}, "inbound_nodes": [[["batch_normalization_7", 0, 0, {}]]], "class_name": "LeakyReLU", "name": "leaky_re_lu_7"}, {"config": {"kernel_regularizer": null, "activity_regularizer": null, "bias_regularizer": null, "filters": 64, "kernel_constraint": null, "activation": "linear", "padding": "same", "strides": [1, 1, 1], "name": "conv3d_8", "bias_initializer": {"config": {}, "class_name": "Zeros"}, "trainable": true, "dilation_rate": [1, 1, 1], "kernel_size": [3, 3, 3], "data_format": "channels_first", "use_bias": true, "kernel_initializer": {"config": {"mode": "fan_avg", "distribution": "uniform", "seed": null, "scale": 1.0}, "class_name": "VarianceScaling"}, "bias_constraint": null}, "inbound_nodes": [[["leaky_re_lu_7", 0, 0, {}]]], "class_name": "Conv3D", "name": "conv3d_8"}, {"config": {"beta_constraint": null, "gamma_regularizer": null, "scale": true, "gamma_constraint": null, "axis": 1, "beta_initializer": {"config": {}, "class_name": "Zeros"}, "center": true, "moving_mean_initializer": {"config": {}, "class_name": "Zeros"}, "momentum": 0.99, "name": "batch_normalization_8", "epsilon": 0.001, "gamma_initializer": {"config": {}, "class_name": "Ones"}, "trainable": true, "moving_variance_initializer": {"config": {}, "class_name": "Ones"}, "beta_regularizer": null}, "inbound_nodes": [[["conv3d_8", 0, 0, {}]]], "class_name": "BatchNormalization", "name": "batch_normalization_8"}, {"config": {"trainable": true, "name": "leaky_re_lu_8", "alpha": 0.30000001192092896}, "inbound_nodes": [[["batch_normalization_8", 0, 0, {}]]], "class_name": "LeakyReLU", "name": "leaky_re_lu_8"}, {"config": {"noise_shape": null, "trainable": true, "name": "spatial_dropout3d_3", "seed": null, "rate": 0.3}, "inbound_nodes": [[["leaky_re_lu_8", 0, 0, {}]]], "class_name": "SpatialDropout3D", "name": "spatial_dropout3d_3"}, {"config": {"kernel_regularizer": null, "activity_regularizer": null, "bias_regularizer": null, "filters": 64, "kernel_constraint": null, "activation": "linear", "padding": "same", "strides": [1, 1, 1], "name": "conv3d_9", "bias_initializer": {"config": {}, "class_name": "Zeros"}, "trainable": true, "dilation_rate": [1, 1, 1], "kernel_size": [3, 3, 3], "data_format": "channels_first", "use_bias": true, "kernel_initializer": {"config": {"mode": "fan_avg", "distribution": "uniform", "seed": null, "scale": 1.0}, "class_name": "VarianceScaling"}, "bias_constraint": null}, "inbound_nodes": [[["spatial_dropout3d_3", 0, 0, {}]]], "class_name": "Conv3D", "name": "conv3d_9"}, {"config": {"beta_constraint": null, "gamma_regularizer": null, "scale": true, "gamma_constraint": null, "axis": 1, "beta_initializer": {"config": {}, "class_name": "Zeros"}, "center": true, "moving_mean_initializer": {"config": {}, "class_name": "Zeros"}, "momentum": 0.99, "name": "batch_normalization_9", "epsilon": 0.001, "gamma_initializer": {"config": {}, "class_name": "Ones"}, "trainable": true, "moving_variance_initializer": {"config": {}, "class_name": "Ones"}, "beta_regularizer": null}, "inbound_nodes": [[["conv3d_9", 0, 0, {}]]], "class_name": "BatchNormalization", "name": "batch_normalization_9"}, {"config": {"trainable": true, "name": "leaky_re_lu_9", "alpha": 0.30000001192092896}, "inbound_nodes": [[["batch_normalization_9", 0, 0, {}]]], "class_name": "LeakyReLU", "name": "leaky_re_lu_9"}, {"config": {"trainable": true, "name": "add_3"}, "inbound_nodes": [[["leaky_re_lu_7", 0, 0, {}], ["leaky_re_lu_9", 0, 0, {}]]], "class_name": "Add", "name": "add_3"}, {"config": {"kernel_regularizer": null, "activity_regularizer": null, "bias_regularizer": null, "filters": 128, "kernel_constraint": null, "activation": "linear", "padding": "same", "strides": [2, 2, 2], "name": "conv3d_10", "bias_initializer": {"config": {}, "class_name": "Zeros"}, "trainable": true, "dilation_rate": [1, 1, 1], "kernel_size": [3, 3, 3], "data_format": "channels_first", "use_bias": true, "kernel_initializer": {"config": {"mode": "fan_avg", "distribution": "uniform", "seed": null, "scale": 1.0}, "class_name": "VarianceScaling"}, "bias_constraint": null}, "inbound_nodes": [[["add_3", 0, 0, {}]]], "class_name": "Conv3D", "name": "conv3d_10"}, {"config": {"beta_constraint": null, "gamma_regularizer": null, "scale": true, "gamma_constraint": null, "axis": 1, "beta_initializer": {"config": {}, "class_name": "Zeros"}, "center": true, "moving_mean_initializer": {"config": {}, "class_name": "Zeros"}, "momentum": 0.99, "name": "batch_normalization_10", "epsilon": 0.001, "gamma_initializer": {"config": {}, "class_name": "Ones"}, "trainable": true, "moving_variance_initializer": {"config": {}, "class_name": "Ones"}, "beta_regularizer": null}, "inbound_nodes": [[["conv3d_10", 0, 0, {}]]], "class_name": "BatchNormalization", "name": "batch_normalization_10"}, {"config": {"trainable": true, "name": "leaky_re_lu_10", "alpha": 0.30000001192092896}, "inbound_nodes": [[["batch_normalization_10", 0, 0, {}]]], "class_name": "LeakyReLU", "name": "leaky_re_lu_10"}, {"config": {"kernel_regularizer": null, "activity_regularizer": null, "bias_regularizer": null, "filters": 128, "kernel_constraint": null, "activation": "linear", "padding": "same", "strides": [1, 1, 1], "name": "conv3d_11", "bias_initializer": {"config": {}, "class_name": "Zeros"}, "trainable": true, "dilation_rate": [1, 1, 1], "kernel_size": [3, 3, 3], "data_format": "channels_first", "use_bias": true, "kernel_initializer": {"config": {"mode": "fan_avg", "distribution": "uniform", "seed": null, "scale": 1.0}, "class_name": "VarianceScaling"}, "bias_constraint": null}, "inbound_nodes": [[["leaky_re_lu_10", 0, 0, {}]]], "class_name": "Conv3D", "name": "conv3d_11"}, {"config": {"beta_constraint": null, "gamma_regularizer": null, "scale": true, "gamma_constraint": null, "axis": 1, "beta_initializer": {"config": {}, "class_name": "Zeros"}, "center": true, "moving_mean_initializer": {"config": {}, "class_name": "Zeros"}, "momentum": 0.99, "name": "batch_normalization_11", "epsilon": 0.001, "gamma_initializer": {"config": {}, "class_name": "Ones"}, "trainable": true, "moving_variance_initializer": {"config": {}, "class_name": "Ones"}, "beta_regularizer": null}, "inbound_nodes": [[["conv3d_11", 0, 0, {}]]], "class_name": "BatchNormalization", "name": "batch_normalization_11"}, {"config": {"trainable": true, "name": "leaky_re_lu_11", "alpha": 0.30000001192092896}, "inbound_nodes": [[["batch_normalization_11", 0, 0, {}]]], "class_name": "LeakyReLU", "name": "leaky_re_lu_11"}, {"config": {"noise_shape": null, "trainable": true, "name": "spatial_dropout3d_4", "seed": null, "rate": 0.3}, "inbound_nodes": [[["leaky_re_lu_11", 0, 0, {}]]], "class_name": "SpatialDropout3D", "name": "spatial_dropout3d_4"}, {"config": {"kernel_regularizer": null, "activity_regularizer": null, "bias_regularizer": null, "filters": 128, "kernel_constraint": null, "activation": "linear", "padding": "same", "strides": [1, 1, 1], "name": "conv3d_12", "bias_initializer": {"config": {}, "class_name": "Zeros"}, "trainable": true, "dilation_rate": [1, 1, 1], "kernel_size": [3, 3, 3], "data_format": "channels_first", "use_bias": true, "kernel_initializer": {"config": {"mode": "fan_avg", "distribution": "uniform", "seed": null, "scale": 1.0}, "class_name": "VarianceScaling"}, "bias_constraint": null}, "inbound_nodes": [[["spatial_dropout3d_4", 0, 0, {}]]], "class_name": "Conv3D", "name": "conv3d_12"}, {"config": {"beta_constraint": null, "gamma_regularizer": null, "scale": true, "gamma_constraint": null, "axis": 1, "beta_initializer": {"config": {}, "class_name": "Zeros"}, "center": true, "moving_mean_initializer": {"config": {}, "class_name": "Zeros"}, "momentum": 0.99, "name": "batch_normalization_12", "epsilon": 0.001, "gamma_initializer": {"config": {}, "class_name": "Ones"}, "trainable": true, "moving_variance_initializer": {"config": {}, "class_name": "Ones"}, "beta_regularizer": null}, "inbound_nodes": [[["conv3d_12", 0, 0, {}]]], "class_name": "BatchNormalization", "name": "batch_normalization_12"}, {"config": {"trainable": true, "name": "leaky_re_lu_12", "alpha": 0.30000001192092896}, "inbound_nodes": [[["batch_normalization_12", 0, 0, {}]]], "class_name": "LeakyReLU", "name": "leaky_re_lu_12"}, {"config": {"trainable": true, "name": "add_4"}, "inbound_nodes": [[["leaky_re_lu_10", 0, 0, {}], ["leaky_re_lu_12", 0, 0, {}]]], "class_name": "Add", "name": "add_4"}, {"config": {"kernel_regularizer": null, "activity_regularizer": null, "bias_regularizer": null, "filters": 256, "kernel_constraint": null, "activation": "linear", "padding": "same", "strides": [2, 2, 2], "name": "conv3d_13", "bias_initializer": {"config": {}, "class_name": "Zeros"}, "trainable": true, "dilation_rate": [1, 1, 1], "kernel_size": [3, 3, 3], "data_format": "channels_first", "use_bias": true, "kernel_initializer": {"config": {"mode": "fan_avg", "distribution": "uniform", "seed": null, "scale": 1.0}, "class_name": "VarianceScaling"}, "bias_constraint": null}, "inbound_nodes": [[["add_4", 0, 0, {}]]], "class_name": "Conv3D", "name": "conv3d_13"}, {"config": {"beta_constraint": null, "gamma_regularizer": null, "scale": true, "gamma_constraint": null, "axis": 1, "beta_initializer": {"config": {}, "class_name": "Zeros"}, "center": true, "moving_mean_initializer": {"config": {}, "class_name": "Zeros"}, "momentum": 0.99, "name": "batch_normalization_13", "epsilon": 0.001, "gamma_initializer": {"config": {}, "class_name": "Ones"}, "trainable": true, "moving_variance_initializer": {"config": {}, "class_name": "Ones"}, "beta_regularizer": null}, "inbound_nodes": [[["conv3d_13", 0, 0, {}]]], "class_name": "BatchNormalization", "name": "batch_normalization_13"}, {"config": {"trainable": true, "name": "leaky_re_lu_13", "alpha": 0.30000001192092896}, "inbound_nodes": [[["batch_normalization_13", 0, 0, {}]]], "class_name": "LeakyReLU", "name": "leaky_re_lu_13"}, {"config": {"kernel_regularizer": null, "activity_regularizer": null, "bias_regularizer": null, "filters": 256, "kernel_constraint": null, "activation": "linear", "padding": "same", "strides": [1, 1, 1], "name": "conv3d_14", "bias_initializer": {"config": {}, "class_name": "Zeros"}, "trainable": true, "dilation_rate": [1, 1, 1], "kernel_size": [3, 3, 3], "data_format": "channels_first", "use_bias": true, "kernel_initializer": {"config": {"mode": "fan_avg", "distribution": "uniform", "seed": null, "scale": 1.0}, "class_name": "VarianceScaling"}, "bias_constraint": null}, "inbound_nodes": [[["leaky_re_lu_13", 0, 0, {}]]], "class_name": "Conv3D", "name": "conv3d_14"}, {"config": {"beta_constraint": null, "gamma_regularizer": null, "scale": true, "gamma_constraint": null, "axis": 1, "beta_initializer": {"config": {}, "class_name": "Zeros"}, "center": true, "moving_mean_initializer": {"config": {}, "class_name": "Zeros"}, "momentum": 0.99, "name": "batch_normalization_14", "epsilon": 0.001, "gamma_initializer": {"config": {}, "class_name": "Ones"}, "trainable": true, "moving_variance_initializer": {"config": {}, "class_name": "Ones"}, "beta_regularizer": null}, "inbound_nodes": [[["conv3d_14", 0, 0, {}]]], "class_name": "BatchNormalization", "name": "batch_normalization_14"}, {"config": {"trainable": true, "name": "leaky_re_lu_14", "alpha": 0.30000001192092896}, "inbound_nodes": [[["batch_normalization_14", 0, 0, {}]]], "class_name": "LeakyReLU", "name": "leaky_re_lu_14"}, {"config": {"noise_shape": null, "trainable": true, "name": "spatial_dropout3d_5", "seed": null, "rate": 0.3}, "inbound_nodes": [[["leaky_re_lu_14", 0, 0, {}]]], "class_name": "SpatialDropout3D", "name": "spatial_dropout3d_5"}, {"config": {"kernel_regularizer": null, "activity_regularizer": null, "bias_regularizer": null, "filters": 256, "kernel_constraint": null, "activation": "linear", "padding": "same", "strides": [1, 1, 1], "name": "conv3d_15", "bias_initializer": {"config": {}, "class_name": "Zeros"}, "trainable": true, "dilation_rate": [1, 1, 1], "kernel_size": [3, 3, 3], "data_format": "channels_first", "use_bias": true, "kernel_initializer": {"config": {"mode": "fan_avg", "distribution": "uniform", "seed": null, "scale": 1.0}, "class_name": "VarianceScaling"}, "bias_constraint": null}, "inbound_nodes": [[["spatial_dropout3d_5", 0, 0, {}]]], "class_name": "Conv3D", "name": "conv3d_15"}, {"config": {"beta_constraint": null, "gamma_regularizer": null, "scale": true, "gamma_constraint": null, "axis": 1, "beta_initializer": {"config": {}, "class_name": "Zeros"}, "center": true, "moving_mean_initializer": {"config": {}, "class_name": "Zeros"}, "momentum": 0.99, "name": "batch_normalization_15", "epsilon": 0.001, "gamma_initializer": {"config": {}, "class_name": "Ones"}, "trainable": true, "moving_variance_initializer": {"config": {}, "class_name": "Ones"}, "beta_regularizer": null}, "inbound_nodes": [[["conv3d_15", 0, 0, {}]]], "class_name": "BatchNormalization", "name": "batch_normalization_15"}, {"config": {"trainable": true, "name": "leaky_re_lu_15", "alpha": 0.30000001192092896}, "inbound_nodes": [[["batch_normalization_15", 0, 0, {}]]], "class_name": "LeakyReLU", "name": "leaky_re_lu_15"}, {"config": {"trainable": true, "name": "add_5"}, "inbound_nodes": [[["leaky_re_lu_13", 0, 0, {}], ["leaky_re_lu_15", 0, 0, {}]]], "class_name": "Add", "name": "add_5"}, {"config": {"trainable": true, "size": [2, 2, 2], "data_format": "channels_first", "name": "up_sampling3d_1"}, "inbound_nodes": [[["add_5", 0, 0, {}]]], "class_name": "UpSampling3D", "name": "up_sampling3d_1"}, {"config": {"kernel_regularizer": null, "activity_regularizer": null, "bias_regularizer": null, "filters": 128, "kernel_constraint": null, "activation": "linear", "padding": "same", "strides": [1, 1, 1], "name": "conv3d_16", "bias_initializer": {"config": {}, "class_name": "Zeros"}, "trainable": true, "dilation_rate": [1, 1, 1], "kernel_size": [3, 3, 3], "data_format": "channels_first", "use_bias": true, "kernel_initializer": {"config": {"mode": "fan_avg", "distribution": "uniform", "seed": null, "scale": 1.0}, "class_name": "VarianceScaling"}, "bias_constraint": null}, "inbound_nodes": [[["up_sampling3d_1", 0, 0, {}]]], "class_name": "Conv3D", "name": "conv3d_16"}, {"config": {"beta_constraint": null, "gamma_regularizer": null, "scale": true, "gamma_constraint": null, "axis": 1, "beta_initializer": {"config": {}, "class_name": "Zeros"}, "center": true, "moving_mean_initializer": {"config": {}, "class_name": "Zeros"}, "momentum": 0.99, "name": "batch_normalization_16", "epsilon": 0.001, "gamma_initializer": {"config": {}, "class_name": "Ones"}, "trainable": true, "moving_variance_initializer": {"config": {}, "class_name": "Ones"}, "beta_regularizer": null}, "inbound_nodes": [[["conv3d_16", 0, 0, {}]]], "class_name": "BatchNormalization", "name": "batch_normalization_16"}, {"config": {"trainable": true, "name": "leaky_re_lu_16", "alpha": 0.30000001192092896}, "inbound_nodes": [[["batch_normalization_16", 0, 0, {}]]], "class_name": "LeakyReLU", "name": "leaky_re_lu_16"}, {"config": {"trainable": true, "name": "concatenate_1", "axis": 1}, "inbound_nodes": [[["add_4", 0, 0, {}], ["leaky_re_lu_16", 0, 0, {}]]], "class_name": "Concatenate", "name": "concatenate_1"}, {"config": {"kernel_regularizer": null, "activity_regularizer": null, "bias_regularizer": null, "filters": 128, "kernel_constraint": null, "activation": "linear", "padding": "same", "strides": [1, 1, 1], "name": "conv3d_17", "bias_initializer": {"config": {}, "class_name": "Zeros"}, "trainable": true, "dilation_rate": [1, 1, 1], "kernel_size": [3, 3, 3], "data_format": "channels_first", "use_bias": true, "kernel_initializer": {"config": {"mode": "fan_avg", "distribution": "uniform", "seed": null, "scale": 1.0}, "class_name": "VarianceScaling"}, "bias_constraint": null}, "inbound_nodes": [[["concatenate_1", 0, 0, {}]]], "class_name": "Conv3D", "name": "conv3d_17"}, {"config": {"beta_constraint": null, "gamma_regularizer": null, "scale": true, "gamma_constraint": null, "axis": 1, "beta_initializer": {"config": {}, "class_name": "Zeros"}, "center": true, "moving_mean_initializer": {"config": {}, "class_name": "Zeros"}, "momentum": 0.99, "name": "batch_normalization_17", "epsilon": 0.001, "gamma_initializer": {"config": {}, "class_name": "Ones"}, "trainable": true, "moving_variance_initializer": {"config": {}, "class_name": "Ones"}, "beta_regularizer": null}, "inbound_nodes": [[["conv3d_17", 0, 0, {}]]], "class_name": "BatchNormalization", "name": "batch_normalization_17"}, {"config": {"trainable": true, "name": "leaky_re_lu_17", "alpha": 0.30000001192092896}, "inbound_nodes": [[["batch_normalization_17", 0, 0, {}]]], "class_name": "LeakyReLU", "name": "leaky_re_lu_17"}, {"config": {"kernel_regularizer": null, "activity_regularizer": null, "bias_regularizer": null, "filters": 128, "kernel_constraint": null, "activation": "linear", "padding": "same", "strides": [1, 1, 1], "name": "conv3d_18", "bias_initializer": {"config": {}, "class_name": "Zeros"}, "trainable": true, "dilation_rate": [1, 1, 1], "kernel_size": [1, 1, 1], "data_format": "channels_first", "use_bias": true, "kernel_initializer": {"config": {"mode": "fan_avg", "distribution": "uniform", "seed": null, "scale": 1.0}, "class_name": "VarianceScaling"}, "bias_constraint": null}, "inbound_nodes": [[["leaky_re_lu_17", 0, 0, {}]]], "class_name": "Conv3D", "name": "conv3d_18"}, {"config": {"beta_constraint": null, "gamma_regularizer": null, "scale": true, "gamma_constraint": null, "axis": 1, "beta_initializer": {"config": {}, "class_name": "Zeros"}, "center": true, "moving_mean_initializer": {"config": {}, "class_name": "Zeros"}, "momentum": 0.99, "name": "batch_normalization_18", "epsilon": 0.001, "gamma_initializer": {"config": {}, "class_name": "Ones"}, "trainable": true, "moving_variance_initializer": {"config": {}, "class_name": "Ones"}, "beta_regularizer": null}, "inbound_nodes": [[["conv3d_18", 0, 0, {}]]], "class_name": "BatchNormalization", "name": "batch_normalization_18"}, {"config": {"trainable": true, "name": "leaky_re_lu_18", "alpha": 0.30000001192092896}, "inbound_nodes": [[["batch_normalization_18", 0, 0, {}]]], "class_name": "LeakyReLU", "name": "leaky_re_lu_18"}, {"config": {"trainable": true, "size": [2, 2, 2], "data_format": "channels_first", "name": "up_sampling3d_2"}, "inbound_nodes": [[["leaky_re_lu_18", 0, 0, {}]]], "class_name": "UpSampling3D", "name": "up_sampling3d_2"}, {"config": {"kernel_regularizer": null, "activity_regularizer": null, "bias_regularizer": null, "filters": 64, "kernel_constraint": null, "activation": "linear", "padding": "same", "strides": [1, 1, 1], "name": "conv3d_19", "bias_initializer": {"config": {}, "class_name": "Zeros"}, "trainable": true, "dilation_rate": [1, 1, 1], "kernel_size": [3, 3, 3], "data_format": "channels_first", "use_bias": true, "kernel_initializer": {"config": {"mode": "fan_avg", "distribution": "uniform", "seed": null, "scale": 1.0}, "class_name": "VarianceScaling"}, "bias_constraint": null}, "inbound_nodes": [[["up_sampling3d_2", 0, 0, {}]]], "class_name": "Conv3D", "name": "conv3d_19"}, {"config": {"beta_constraint": null, "gamma_regularizer": null, "scale": true, "gamma_constraint": null, "axis": 1, "beta_initializer": {"config": {}, "class_name": "Zeros"}, "center": true, "moving_mean_initializer": {"config": {}, "class_name": "Zeros"}, "momentum": 0.99, "name": "batch_normalization_19", "epsilon": 0.001, "gamma_initializer": {"config": {}, "class_name": "Ones"}, "trainable": true, "moving_variance_initializer": {"config": {}, "class_name": "Ones"}, "beta_regularizer": null}, "inbound_nodes": [[["conv3d_19", 0, 0, {}]]], "class_name": "BatchNormalization", "name": "batch_normalization_19"}, {"config": {"trainable": true, "name": "leaky_re_lu_19", "alpha": 0.30000001192092896}, "inbound_nodes": [[["batch_normalization_19", 0, 0, {}]]], "class_name": "LeakyReLU", "name": "leaky_re_lu_19"}, {"config": {"trainable": true, "name": "concatenate_2", "axis": 1}, "inbound_nodes": [[["add_3", 0, 0, {}], ["leaky_re_lu_19", 0, 0, {}]]], "class_name": "Concatenate", "name": "concatenate_2"}, {"config": {"kernel_regularizer": null, "activity_regularizer": null, "bias_regularizer": null, "filters": 64, "kernel_constraint": null, "activation": "linear", "padding": "same", "strides": [1, 1, 1], "name": "conv3d_20", "bias_initializer": {"config": {}, "class_name": "Zeros"}, "trainable": true, "dilation_rate": [1, 1, 1], "kernel_size": [3, 3, 3], "data_format": "channels_first", "use_bias": true, "kernel_initializer": {"config": {"mode": "fan_avg", "distribution": "uniform", "seed": null, "scale": 1.0}, "class_name": "VarianceScaling"}, "bias_constraint": null}, "inbound_nodes": [[["concatenate_2", 0, 0, {}]]], "class_name": "Conv3D", "name": "conv3d_20"}, {"config": {"beta_constraint": null, "gamma_regularizer": null, "scale": true, "gamma_constraint": null, "axis": 1, "beta_initializer": {"config": {}, "class_name": "Zeros"}, "center": true, "moving_mean_initializer": {"config": {}, "class_name": "Zeros"}, "momentum": 0.99, "name": "batch_normalization_20", "epsilon": 0.001, "gamma_initializer": {"config": {}, "class_name": "Ones"}, "trainable": true, "moving_variance_initializer": {"config": {}, "class_name": "Ones"}, "beta_regularizer": null}, "inbound_nodes": [[["conv3d_20", 0, 0, {}]]], "class_name": "BatchNormalization", "name": "batch_normalization_20"}, {"config": {"trainable": true, "name": "leaky_re_lu_20", "alpha": 0.30000001192092896}, "inbound_nodes": [[["batch_normalization_20", 0, 0, {}]]], "class_name": "LeakyReLU", "name": "leaky_re_lu_20"}, {"config": {"kernel_regularizer": null, "activity_regularizer": null, "bias_regularizer": null, "filters": 64, "kernel_constraint": null, "activation": "linear", "padding": "same", "strides": [1, 1, 1], "name": "conv3d_21", "bias_initializer": {"config": {}, "class_name": "Zeros"}, "trainable": true, "dilation_rate": [1, 1, 1], "kernel_size": [1, 1, 1], "data_format": "channels_first", "use_bias": true, "kernel_initializer": {"config": {"mode": "fan_avg", "distribution": "uniform", "seed": null, "scale": 1.0}, "class_name": "VarianceScaling"}, "bias_constraint": null}, "inbound_nodes": [[["leaky_re_lu_20", 0, 0, {}]]], "class_name": "Conv3D", "name": "conv3d_21"}, {"config": {"beta_constraint": null, "gamma_regularizer": null, "scale": true, "gamma_constraint": null, "axis": 1, "beta_initializer": {"config": {}, "class_name": "Zeros"}, "center": true, "moving_mean_initializer": {"config": {}, "class_name": "Zeros"}, "momentum": 0.99, "name": "batch_normalization_21", "epsilon": 0.001, "gamma_initializer": {"config": {}, "class_name": "Ones"}, "trainable": true, "moving_variance_initializer": {"config": {}, "class_name": "Ones"}, "beta_regularizer": null}, "inbound_nodes": [[["conv3d_21", 0, 0, {}]]], "class_name": "BatchNormalization", "name": "batch_normalization_21"}, {"config": {"trainable": true, "name": "leaky_re_lu_21", "alpha": 0.30000001192092896}, "inbound_nodes": [[["batch_normalization_21", 0, 0, {}]]], "class_name": "LeakyReLU", "name": "leaky_re_lu_21"}, {"config": {"trainable": true, "size": [2, 2, 2], "data_format": "channels_first", "name": "up_sampling3d_3"}, "inbound_nodes": [[["leaky_re_lu_21", 0, 0, {}]]], "class_name": "UpSampling3D", "name": "up_sampling3d_3"}, {"config": {"kernel_regularizer": null, "activity_regularizer": null, "bias_regularizer": null, "filters": 32, "kernel_constraint": null, "activation": "linear", "padding": "same", "strides": [1, 1, 1], "name": "conv3d_23", "bias_initializer": {"config": {}, "class_name": "Zeros"}, "trainable": true, "dilation_rate": [1, 1, 1], "kernel_size": [3, 3, 3], "data_format": "channels_first", "use_bias": true, "kernel_initializer": {"config": {"mode": "fan_avg", "distribution": "uniform", "seed": null, "scale": 1.0}, "class_name": "VarianceScaling"}, "bias_constraint": null}, "inbound_nodes": [[["up_sampling3d_3", 0, 0, {}]]], "class_name": "Conv3D", "name": "conv3d_23"}, {"config": {"beta_constraint": null, "gamma_regularizer": null, "scale": true, "gamma_constraint": null, "axis": 1, "beta_initializer": {"config": {}, "class_name": "Zeros"}, "center": true, "moving_mean_initializer": {"config": {}, "class_name": "Zeros"}, "momentum": 0.99, "name": "batch_normalization_22", "epsilon": 0.001, "gamma_initializer": {"config": {}, "class_name": "Ones"}, "trainable": true, "moving_variance_initializer": {"config": {}, "class_name": "Ones"}, "beta_regularizer": null}, "inbound_nodes": [[["conv3d_23", 0, 0, {}]]], "class_name": "BatchNormalization", "name": "batch_normalization_22"}, {"config": {"trainable": true, "name": "leaky_re_lu_22", "alpha": 0.30000001192092896}, "inbound_nodes": [[["batch_normalization_22", 0, 0, {}]]], "class_name": "LeakyReLU", "name": "leaky_re_lu_22"}, {"config": {"trainable": true, "name": "concatenate_3", "axis": 1}, "inbound_nodes": [[["add_2", 0, 0, {}], ["leaky_re_lu_22", 0, 0, {}]]], "class_name": "Concatenate", "name": "concatenate_3"}, {"config": {"kernel_regularizer": null, "activity_regularizer": null, "bias_regularizer": null, "filters": 32, "kernel_constraint": null, "activation": "linear", "padding": "same", "strides": [1, 1, 1], "name": "conv3d_24", "bias_initializer": {"config": {}, "class_name": "Zeros"}, "trainable": true, "dilation_rate": [1, 1, 1], "kernel_size": [3, 3, 3], "data_format": "channels_first", "use_bias": true, "kernel_initializer": {"config": {"mode": "fan_avg", "distribution": "uniform", "seed": null, "scale": 1.0}, "class_name": "VarianceScaling"}, "bias_constraint": null}, "inbound_nodes": [[["concatenate_3", 0, 0, {}]]], "class_name": "Conv3D", "name": "conv3d_24"}, {"config": {"beta_constraint": null, "gamma_regularizer": null, "scale": true, "gamma_constraint": null, "axis": 1, "beta_initializer": {"config": {}, "class_name": "Zeros"}, "center": true, "moving_mean_initializer": {"config": {}, "class_name": "Zeros"}, "momentum": 0.99, "name": "batch_normalization_23", "epsilon": 0.001, "gamma_initializer": {"config": {}, "class_name": "Ones"}, "trainable": true, "moving_variance_initializer": {"config": {}, "class_name": "Ones"}, "beta_regularizer": null}, "inbound_nodes": [[["conv3d_24", 0, 0, {}]]], "class_name": "BatchNormalization", "name": "batch_normalization_23"}, {"config": {"trainable": true, "name": "leaky_re_lu_23", "alpha": 0.30000001192092896}, "inbound_nodes": [[["batch_normalization_23", 0, 0, {}]]], "class_name": "LeakyReLU", "name": "leaky_re_lu_23"}, {"config": {"kernel_regularizer": null, "activity_regularizer": null, "bias_regularizer": null, "filters": 32, "kernel_constraint": null, "activation": "linear", "padding": "same", "strides": [1, 1, 1], "name": "conv3d_25", "bias_initializer": {"config": {}, "class_name": "Zeros"}, "trainable": true, "dilation_rate": [1, 1, 1], "kernel_size": [1, 1, 1], "data_format": "channels_first", "use_bias": true, "kernel_initializer": {"config": {"mode": "fan_avg", "distribution": "uniform", "seed": null, "scale": 1.0}, "class_name": "VarianceScaling"}, "bias_constraint": null}, "inbound_nodes": [[["leaky_re_lu_23", 0, 0, {}]]], "class_name": "Conv3D", "name": "conv3d_25"}, {"config": {"beta_constraint": null, "gamma_regularizer": null, "scale": true, "gamma_constraint": null, "axis": 1, "beta_initializer": {"config": {}, "class_name": "Zeros"}, "center": true, "moving_mean_initializer": {"config": {}, "class_name": "Zeros"}, "momentum": 0.99, "name": "batch_normalization_24", "epsilon": 0.001, "gamma_initializer": {"config": {}, "class_name": "Ones"}, "trainable": true, "moving_variance_initializer": {"config": {}, "class_name": "Ones"}, "beta_regularizer": null}, "inbound_nodes": [[["conv3d_25", 0, 0, {}]]], "class_name": "BatchNormalization", "name": "batch_normalization_24"}, {"config": {"trainable": true, "name": "leaky_re_lu_24", "alpha": 0.30000001192092896}, "inbound_nodes": [[["batch_normalization_24", 0, 0, {}]]], "class_name": "LeakyReLU", "name": "leaky_re_lu_24"}, {"config": {"trainable": true, "size": [2, 2, 2], "data_format": "channels_first", "name": "up_sampling3d_4"}, "inbound_nodes": [[["leaky_re_lu_24", 0, 0, {}]]], "class_name": "UpSampling3D", "name": "up_sampling3d_4"}, {"config": {"kernel_regularizer": null, "activity_regularizer": null, "bias_regularizer": null, "filters": 16, "kernel_constraint": null, "activation": "linear", "padding": "same", "strides": [1, 1, 1], "name": "conv3d_27", "bias_initializer": {"config": {}, "class_name": "Zeros"}, "trainable": true, "dilation_rate": [1, 1, 1], "kernel_size": [3, 3, 3], "data_format": "channels_first", "use_bias": true, "kernel_initializer": {"config": {"mode": "fan_avg", "distribution": "uniform", "seed": null, "scale": 1.0}, "class_name": "VarianceScaling"}, "bias_constraint": null}, "inbound_nodes": [[["up_sampling3d_4", 0, 0, {}]]], "class_name": "Conv3D", "name": "conv3d_27"}, {"config": {"beta_constraint": null, "gamma_regularizer": null, "scale": true, "gamma_constraint": null, "axis": 1, "beta_initializer": {"config": {}, "class_name": "Zeros"}, "center": true, "moving_mean_initializer": {"config": {}, "class_name": "Zeros"}, "momentum": 0.99, "name": "batch_normalization_25", "epsilon": 0.001, "gamma_initializer": {"config": {}, "class_name": "Ones"}, "trainable": true, "moving_variance_initializer": {"config": {}, "class_name": "Ones"}, "beta_regularizer": null}, "inbound_nodes": [[["conv3d_27", 0, 0, {}]]], "class_name": "BatchNormalization", "name": "batch_normalization_25"}, {"config": {"trainable": true, "name": "leaky_re_lu_25", "alpha": 0.30000001192092896}, "inbound_nodes": [[["batch_normalization_25", 0, 0, {}]]], "class_name": "LeakyReLU", "name": "leaky_re_lu_25"}, {"config": {"trainable": true, "name": "concatenate_4", "axis": 1}, "inbound_nodes": [[["add_1", 0, 0, {}], ["leaky_re_lu_25", 0, 0, {}]]], "class_name": "Concatenate", "name": "concatenate_4"}, {"config": {"kernel_regularizer": null, "activity_regularizer": null, "bias_regularizer": null, "filters": 16, "kernel_constraint": null, "activation": "linear", "padding": "same", "strides": [1, 1, 1], "name": "conv3d_28", "bias_initializer": {"config": {}, "class_name": "Zeros"}, "trainable": true, "dilation_rate": [1, 1, 1], "kernel_size": [3, 3, 3], "data_format": "channels_first", "use_bias": true, "kernel_initializer": {"config": {"mode": "fan_avg", "distribution": "uniform", "seed": null, "scale": 1.0}, "class_name": "VarianceScaling"}, "bias_constraint": null}, "inbound_nodes": [[["concatenate_4", 0, 0, {}]]], "class_name": "Conv3D", "name": "conv3d_28"}, {"config": {"beta_constraint": null, "gamma_regularizer": null, "scale": true, "gamma_constraint": null, "axis": 1, "beta_initializer": {"config": {}, "class_name": "Zeros"}, "center": true, "moving_mean_initializer": {"config": {}, "class_name": "Zeros"}, "momentum": 0.99, "name": "batch_normalization_26", "epsilon": 0.001, "gamma_initializer": {"config": {}, "class_name": "Ones"}, "trainable": true, "moving_variance_initializer": {"config": {}, "class_name": "Ones"}, "beta_regularizer": null}, "inbound_nodes": [[["conv3d_28", 0, 0, {}]]], "class_name": "BatchNormalization", "name": "batch_normalization_26"}, {"config": {"trainable": true, "name": "leaky_re_lu_26", "alpha": 0.30000001192092896}, "inbound_nodes": [[["batch_normalization_26", 0, 0, {}]]], "class_name": "LeakyReLU", "name": "leaky_re_lu_26"}, {"config": {"kernel_regularizer": null, "activity_regularizer": null, "bias_regularizer": null, "filters": 2, "kernel_constraint": null, "activation": "linear", "padding": "valid", "strides": [1, 1, 1], "name": "conv3d_22", "bias_initializer": {"config": {}, "class_name": "Zeros"}, "trainable": true, "dilation_rate": [1, 1, 1], "kernel_size": [1, 1, 1], "data_format": "channels_first", "use_bias": true, "kernel_initializer": {"config": {"mode": "fan_avg", "distribution": "uniform", "seed": null, "scale": 1.0}, "class_name": "VarianceScaling"}, "bias_constraint": null}, "inbound_nodes": [[["leaky_re_lu_21", 0, 0, {}]]], "class_name": "Conv3D", "name": "conv3d_22"}, {"config": {"kernel_regularizer": null, "activity_regularizer": null, "bias_regularizer": null, "filters": 16, "kernel_constraint": null, "activation": "linear", "padding": "same", "strides": [1, 1, 1], "name": "conv3d_29", "bias_initializer": {"config": {}, "class_name": "Zeros"}, "trainable": true, "dilation_rate": [1, 1, 1], "kernel_size": [1, 1, 1], "data_format": "channels_first", "use_bias": true, "kernel_initializer": {"config": {"mode": "fan_avg", "distribution": "uniform", "seed": null, "scale": 1.0}, "class_name": "VarianceScaling"}, "bias_constraint": null}, "inbound_nodes": [[["leaky_re_lu_26", 0, 0, {}]]], "class_name": "Conv3D", "name": "conv3d_29"}, {"config": {"trainable": true, "size": [2, 2, 2], "data_format": "channels_first", "name": "up_sampling3d_5"}, "inbound_nodes": [[["conv3d_22", 0, 0, {}]]], "class_name": "UpSampling3D", "name": "up_sampling3d_5"}, {"config": {"kernel_regularizer": null, "activity_regularizer": null, "bias_regularizer": null, "filters": 2, "kernel_constraint": null, "activation": "linear", "padding": "valid", "strides": [1, 1, 1], "name": "conv3d_26", "bias_initializer": {"config": {}, "class_name": "Zeros"}, "trainable": true, "dilation_rate": [1, 1, 1], "kernel_size": [1, 1, 1], "data_format": "channels_first", "use_bias": true, "kernel_initializer": {"config": {"mode": "fan_avg", "distribution": "uniform", "seed": null, "scale": 1.0}, "class_name": "VarianceScaling"}, "bias_constraint": null}, "inbound_nodes": [[["leaky_re_lu_24", 0, 0, {}]]], "class_name": "Conv3D", "name": "conv3d_26"}, {"config": {"beta_constraint": null, "gamma_regularizer": null, "scale": true, "gamma_constraint": null, "axis": 1, "beta_initializer": {"config": {}, "class_name": "Zeros"}, "center": true, "moving_mean_initializer": {"config": {}, "class_name": "Zeros"}, "momentum": 0.99, "name": "batch_normalization_27", "epsilon": 0.001, "gamma_initializer": {"config": {}, "class_name": "Ones"}, "trainable": true, "moving_variance_initializer": {"config": {}, "class_name": "Ones"}, "beta_regularizer": null}, "inbound_nodes": [[["conv3d_29", 0, 0, {}]]], "class_name": "BatchNormalization", "name": "batch_normalization_27"}, {"config": {"trainable": true, "name": "add_6"}, "inbound_nodes": [[["up_sampling3d_5", 0, 0, {}], ["conv3d_26", 0, 0, {}]]], "class_name": "Add", "name": "add_6"}, {"config": {"trainable": true, "name": "leaky_re_lu_27", "alpha": 0.30000001192092896}, "inbound_nodes": [[["batch_normalization_27", 0, 0, {}]]], "class_name": "LeakyReLU", "name": "leaky_re_lu_27"}, {"config": {"trainable": true, "size": [2, 2, 2], "data_format": "channels_first", "name": "up_sampling3d_6"}, "inbound_nodes": [[["add_6", 0, 0, {}]]], "class_name": "UpSampling3D", "name": "up_sampling3d_6"}, {"config": {"kernel_regularizer": null, "activity_regularizer": null, "bias_regularizer": null, "filters": 2, "kernel_constraint": null, "activation": "linear", "padding": "valid", "strides": [1, 1, 1], "name": "conv3d_30", "bias_initializer": {"config": {}, "class_name": "Zeros"}, "trainable": true, "dilation_rate": [1, 1, 1], "kernel_size": [1, 1, 1], "data_format": "channels_first", "use_bias": true, "kernel_initializer": {"config": {"mode": "fan_avg", "distribution": "uniform", "seed": null, "scale": 1.0}, "class_name": "VarianceScaling"}, "bias_constraint": null}, "inbound_nodes": [[["leaky_re_lu_27", 0, 0, {}]]], "class_name": "Conv3D", "name": "conv3d_30"}, {"config": {"trainable": true, "name": "add_7"}, "inbound_nodes": [[["up_sampling3d_6", 0, 0, {}], ["conv3d_30", 0, 0, {}]]], "class_name": "Add", "name": "add_7"}, {"config": {"activation": "sigmoid", "trainable": true, "name": "activation_1"}, "inbound_nodes": [[["add_7", 0, 0, {}]]], "class_name": "Activation", "name": "activation_1"}], "name": "model_1", "input_layers": [["input_1", 0, 0]], "output_layers": [["activation_1", 0, 0]]}, "class_name": "Model", "keras_version": "2.1.5", "backend": "tensorflow"}